sharding/shards_out/shard_027.pt (torch, 2468 bytes, 2 tensors)

features.9.weight f4 [128]
2.6900573 2.9981573 5.9383883 7.1637936 2.0231934 4.481305 2.3350017 4.8668294
4.4123793 9.064638 7.198863 2.497328 5.799865 1.3902947 4.126032 3.0585594
6.7885637 7.141667 5.344291 2.7252436 5.0134773 3.3581798 4.453123 3.9937513
5.1289997 4.546622 3.4208546 2.584247 4.335515 3.2308445 7.0663342 5.4465938
4.7938023 4.149812 3.6363304 3.5022464 3.2255895 4.4007473 3.8025415 3.938052
1.3749539 5.0600533 3.7126827 4.593564 5.7733564 3.4085884 3.7212033 3.675108
6.2678146 4.6957107 4.431466 4.1509123 6.209365 6.3520675 2.432581 8.620152
6.27652 3.1486423 3.315404 2.6351836 2.386571 3.754647 3.8522298 5.646605
2.6357617 2.6649354 4.0235515 5.602459 6.101884 1.162097 5.070858 5.191387
6.0795856 4.6041994 3.3380408 4.0904007 2.46762 4.800362 1.6300805 5.5698175
5.791327 3.5060976 5.557077 3.4336598 4.233391 2.5713382 2.6230383 3.750015
9.058084 2.546518 6.6257906 2.8455386 3.665926 2.6339903 4.778973 4.811952
5.0754557 1.9513457 3.8158228 2.6622536 4.3539877 3.9267159 2.664193 5.1950126
3.6800392 4.9177985 8.0524435 2.9243484 4.118768 4.662877 3.2595491 3.421673
5.023013 4.4732814 3.886545 10.538863 4.970169 1.309545 2.8295891 4.12194
3.912625 2.8527732 7.02858 3.5337822 4.2943063 6.117723 5.872796 5.0710554
00000000: e629 2c40 cfe1 3f40 4707 be40 cc3d e540
00000010: 007c 0140 da66 8f40 ab70 1540 11bd 9b40
00000020: 3632 8d40 c208 1141 165d e640 39d4 1f40
00000030: 7e98 b940 2df5 b13f 7408 8440 70bf 4340
00000040: ea3b d940 8988 e440 6f04 ab40 646a 2e40
00000050: 686e a040 6bec 5640 fc7f 8e40 9f99 7f40
00000060: c420 a440 ed7d 9140 48ef 5a40 4e64 2540
00000070: 8abc 8a40 28c6 4e40 691f e240 7f4a ae40
00000080: d466 9940 43cb 8440 a3b9 6840 ce24 6040
00000090: 0f70 4e40 ecd2 8c40 d75c 7340 0b09 7c40
000000a0: 7dfe af3f f5eb a140 989c 6d40 7afe 9240
000000b0: 56bf b840 5026 5a40 3228 6e40 f834 6b40
000000c0: f091 c840 4343 9640 92ce 8d40 46d4 8440
000000d0: 1eb3 c640 2344 cb40 68af 1b40 25ec 0941
000000e0: 40d9 c840 5b83 4940 942f 5440 d9a6 2840
000000f0: 94bd 1840 234c 7040 ef8a 7640 fdb0 b440
00000100: 52b0 2840 4d8e 2a40 efc0 8040 5847 b340
00000110: a242 c340 98bf 943f 7844 a240 d81f a640
00000120: f78b c240 9a55 9340 76a2 5540 90e4 8240
00000130: 7ced 1d40 919c 9940 7aa6 d03f f23b b240
00000140: 8d52 b940 e763 6040 93d3 b140 15c1 5b40
00000150: f077 8740 ce90 2440 dcdf 2740 3f00 7040
00000160: e9ed 1041 27fa 2240 7a06 d440 4e1d 3640
00000170: 889e 6a40 4c93 2840 59ed 9840 83fb 9940
00000180: 226a a240 b2c5 f93f 7136 7440 5d62 2a40
00000190: de53 8b40 504f 7b40 2382 2a40 8b3d a640
000001a0: c385 6b40 9b5e 9d40 cfd6 0041 8628 3b40
000001b0: f3cc 8340 4a36 9540 749c 5040 b1fc 5a40
000001c0: 86bc a040 1f25 8f40 27bd 7840 2f9f 2841
000001d0: a00b 9f40 2c9f a73f fd17 3540 efe6 8340
000001e0: 7368 7a40 d693 3640 21ea e040 7d29 6240
000001f0: f56a 8940 63c4 c340 f2ed bb40 1646 a240

features.9.bias f4 [128]
1.9433614 1.2082663 -2.8419812 -4.6541185 2.3809268 -2.560873 0.8624515 -2.259695
-1.5094882 -7.46578 -4.6070814 0.76181144 -2.4078722 0.37141088 -3.0010402 1.3421472
-2.9573646 -3.796074 -2.6636298 0.46104595 -2.8846881 -2.290875 -1.5091523 -3.0443058
-2.5934546 -2.3780527 0.046656627 -0.31223857 -1.5774202 -1.5396231 -6.7166038 -2.947229
-0.9911574 -1.3026729 -1.2132905 -0.9471167 -0.5230912 -2.9133015 -0.9048199 -1.895156
1.3515563 -2.664524 -0.78141814 -1.5368503 -3.6065063 0.3628681 -0.049044833 0.4072846
-4.397787 -4.193087 -1.4012105 -1.6518102 -2.7057772 -3.230141 -0.2867444 -8.182268
-2.688713 0.65621775 -1.0286918 1.7124118 2.2005136 -1.3186532 -1.4100859 -10.760428
1.7618505 0.7387387 -1.2784874 -3.2265704 -3.3604698 1.1842611 -2.9176674 -3.2057393
-5.519574 -2.3602624 0.63041466 -0.9262074 1.5317746 -1.8498744 0.41285297 -5.8111305
-3.5916154 -0.1505312 -1.7696114 -0.8154741 -2.0647888 0.53917295 1.4491658 -1.4102787
-7.8916826 1.3770171 -5.752549 -0.010017793 -1.6188407 1.8301895 -2.5255275 -3.7275014
-2.6501563 0.9822766 -1.3259106 1.4194057 -3.576877 -0.8161677 1.7220106 -2.7856798
-0.9321344 -2.4015636 -4.36248 0.81796694 -0.75800484 -2.6927884 1.0272807 -0.44343942
-2.3107755 -2.0320158 -1.2459104 -10.047492 -1.206833 0.53018075 1.3138052 -1.2181084
-1.3971399 0.5872499 -4.0790935 0.5025744 -1.9890718 -3.067947 -3.2966645 -2.1798208
00000000: 11c0 f83f 78a8 9a3f 05e3 35c0 8aee 94c0
00000010: 1b61 1840 58e5 23c0 9fc9 5c3f d89e 10c0
00000020: e936 c1bf abe7 eec0 366d 93c0 1306 433f
00000030: 941a 1ac0 9129 be3e 0b11 40c0 7bcb ab3f
00000040: 7645 3dc0 e0f2 72c0 e978 2ac0 370e ec3e
00000050: bb9e 38c0 b29d 12c0 e72b c1bf e8d5 42c0
00000060: 29fb 25c0 0432 18c0 051b 3f3d bcdd 9fbe
00000070: e8e8 c9bf 5f12 c5bf 6bee d6c0 669f 3cc0
00000080: 7ebc 7dbf fcbd a6bf 1a4d 9bbf 3d76 72bf
00000090: 4ee9 05bf 8873 3ac0 47a2 67bf 7994 f2bf
000000a0: ccff ac3f 9087 2ac0 050b 48bf 83b7 c4bf
000000b0: 00d1 66c0 d9c9 b93e 3ce3 48bd 9b87 d03e
000000c0: acba 8cc0 c52d 86c0 de5a b3bf 846e d3bf
000000d0: 742b 2dc0 a1ba 4ec0 29d0 92be 92ea 02c1
000000e0: e013 2cc0 e3fd 273f 2cac 83bf 4f30 db3f
000000f0: 37d5 0c40 a1c9 a8bf b27d b4bf b72a 2cc1
00000100: 5184 e13f fb1d 3d3f 7aa5 a3bf 2180 4ec0
00000110: f011 57c0 de95 973f 10bb 3ac0 d52a 4dc0
00000120: 5aa0 b0c0 8a0e 17c0 db62 213f ee1b 6dbf
00000130: 3111 c43f afc8 ecbf 7761 d33e c8f4 b9c0
00000140: 07dd 65c0 da24 1abe a082 e2bf e9c2 50bf
00000150: 8025 04c0 3d07 0a3f 447e b93f 0384 b4bf
00000160: aa88 fcc0 1942 b03f e214 b8c0 ab21 24bc
00000170: 2c36 cfbf a643 ea3f 3ea2 21c0 628f 6ec0
00000180: 299c 29c0 7b76 7b3f 70b7 a9bf 16af b53f
00000190: 8eeb 64c0 5ef0 50bf d86a dc3f 9448 32c0
000001a0: 5ca0 6ebf 38b3 19c0 7099 8bc0 4866 513f
000001b0: 9b0c 42bf a556 2cc0 ef7d 833f 7e0a e3be
000001c0: bfe3 13c0 8c0c 02c0 fe79 9fbf 87c2 20c1
000001d0: 8179 9abf edb9 073f c52a a83f faea 9bbf
000001e0: 7bd5 b2bf 0256 163f ef87 82c0 b7a8 003f
000001f0: e899 febf 3e59 44c0 8dfc 52c0 2f82 0bc0
