sharding/shards_out/shard_015.pt (torch, 3556 bytes, 2 tensors)

features.35.weight f4 [256]
00000000: f2cd 4740 a4eb 7040 0714 0b40 920b 2940
00000010: 34a0 a240 85ea 0940 f793 5740 e8ac 4640
00000020: 0fe0 6f40 8045 5f40 420b 5040 1c90 8640
00000030: 03c8 8840 70a2 1a40 2aa7 2b40 b484 8340
00000040: 9ff0 9640 689f 7b40 1149 4940 0b6f 1f40
00000050: f2c9 a240 46c9 4d40 5308 9a40 d384 6440
00000060: 8fb5 2440 c3df 5e40 6ea0 6e40 36af 3540
00000070: 1230 8540 d1f0 e93f d34e dc3f 2151 2d40
00000080: 6496 2140 926a a340 cf13 e13f 361e 3040
00000090: 6a56 a140 de5d 4e40 5b67 6840 cde7 4440
000000a0: 25bc 4d40 1995 6e40 3d3d 6240 8dae 6b40
000000b0: 6449 2b40 3295 1f40 87f9 2140 ade5 7a40
000000c0: 3c9d 0f40 bc99 9e40 9bd8 ba40 1be8 e33f
000000d0: dc34 9c40 ea98 b740 5e52 0e40 f41b 3240
000000e0: 1c6f b340 6598 ed3f 8193 2340 3f8c 4c40
000000f0: 2e21 4840 d394 2840 b475 3240 8f28 8040
00000100: 368c a240 aeda 0c40 1480 a140 f7c2 0140
00000110: 35a4 8440 dd46 9740 a6f1 8140 5154 4840
00000120: 7c11 1040 191b e53f 73e9 4840 7717 4d40
00000130: 315b e23f e449 9c40 98bf 5440 233c 4a40
00000140: ee5d ba40 db90 4340 6be6 0440 7ddc 6740
00000150: 0b81 b240 90ac 9840 489f 7e40 075f 6e40
00000160: fad4 9740 8937 a640 d7dd 2640 5694 3f40
00000170: 7a99 8e40 276e c540 02c4 0540 3d3f 7c40
00000180: 127d 9940 0197 1740 23cf d63f 48b9 0840
00000190: 5cef 7140 4bcf e93f dca6 2140 45bf 7140
000001a0: 321f 5340 182d 6040 e5f9 3240 9452 4540
000001b0: 768f eb3f 9e2c e73f 3f78 4040 f3f5 0840
000001c0: 15c4 da3f 79a5 8240 5b8f 8540 1317 cb40
000001d0: a60d 4d40 667e 5d40 69f7 3540 e2b2 1740
000001e0: e90a 4a40 8af3 b740 3d27 0340 3fd3 2240
000001f0: 18d7 2640 e6b5 8e40 91de 2040 da62 0c40
00000200: 7ad3 8a40 6b8b 0a40 c461 4240 1473 0640
00000210: 904f 8140 f82e 9a40 fd5e 6340 9c2b 1840
00000220: 06a1 8140 be1a 1740 b7cc 6a40 edba 3f40
00000230: f257 d740 0902 7940 be4b 3f40 f9bb 3940
00000240: 83a3 e23f f409 0740 2061 7540 c41b 2840
00000250: 24be 8140 e26b 2d40 b25a 3840 bc40 8e40
00000260: 246a 6e40 4d6c 4440 f89c 6640 15dd f43f
00000270: 366d 6940 adf3 9440 8080 f43f f644 9c40
00000280: bcff 1840 4e2a 6040 2b11 7340 173f 8540
00000290: 4b18 f63f 64fa 1440 b552 9f40 724d bd40
000002a0: 3b0f 7140 fed8 9940 250a 9840 8778 f13f
000002b0: fcc3 8640 b131 a140 201c 7c40 6f17 1b40
000002c0: 0af4 7c40 6993 8340 c9f2 8840 4c0e 8d40
000002d0: ee88 4240 9670 ae40 8fe2 9c40 3dc1 3d40
000002e0: f3c3 2440 5e0a 4c40 e00d 4340 bf83 a940
000002f0: cb5f a940 d005 1b40 0b9b 5140 232f eb3f
00000300: 4b4d 5240 33ef 7e40 d2be 5b40 02e5 f93f
00000310: 3d2b 4140 9187 9040 00e6 8740 102f 0140
00000320: fe5d 1d40 1cff 9140 9677 1b40 6340 3040
00000330: 96cc 4940 46ad 4740 6b46 1440 5d3d 5f40
00000340: 8582 9540 5d9a c03f b932 f33f c014 a440
00000350: 2152 4240 db6b 6f40 669f 6a40 c0be 9340
00000360: ddcf a340 6f65 f13f c13f 8b40 86b6 2040
00000370: 36e4 9f40 a9c2 3840 ac80 7340 b7bf 8840
00000380: 0514 7740 1e33 3b40 69c2 7f40 ec5c 8240
00000390: 6079 e33f 9f32 3340 3c7b 4140 fece 2740
000003a0: 20f2 4d40 021a 9240 88f8 5640 f405 8e40
000003b0: 128e 6e40 2b9a 2940 65c5 9240 edf0 3d40
000003c0: 3004 2c40 9183 3a40 9733 9e40 823f e83f
000003d0: abfc 7c40 13d2 5d40 6494 8240 6da0 4e40
000003e0: 7c13 a640 d365 f73f 1978 7540 77ca 8140
000003f0: 43c9 6940 88c9 5840 9341 3140 1478 8240
3.121945 3.7643824 2.1730974 2.6413312 5.082056 2.154939 3.368406 3.1043034
3.7480505 3.488617 3.2506871 4.2050915 4.2744155 2.4161644 2.682078 4.109949
4.7168727 3.9316044 3.1450846 2.4911525 5.0871515 3.2154098 4.813516 3.570607
2.5735815 3.4824073 3.7285419 2.838819 4.162118 1.8276616 1.7211555 2.7080767
2.524804 5.106759 1.758417 2.751844 5.0417986 3.2244792 3.6313083 3.076648
3.2146084 3.7278502 3.5349877 3.6825287 2.6763544 2.4934812 2.530855 3.9202683
2.2439718 4.9562664 5.838941 1.7805208 4.8814526 5.7374163 2.2237773 2.7829561
5.607313 1.8562132 2.555878 3.19606 3.1270251 2.6340835 2.788434 4.004951
5.0796156 2.2008471 5.0468845 2.0275247 4.145045 4.7274003 4.060748 3.1301463
2.2510672 1.7898895 3.1392486 3.2045572 1.768408 4.88402 3.324194 3.1599205
5.823966 3.0557163 2.0765636 3.6228325 5.5782523 4.7710648 3.9784718 3.72455
4.744748 5.194279 2.60729 2.9934287 4.456235 6.1696963 2.0900884 3.9413598
4.7965174 2.3685915 1.6781963 2.1363087 3.7802343 1.8266386 2.5258093 3.7772992
3.298779 3.5027523 2.7965024 3.0831652 1.8403156 1.8060491 3.0073392 2.1400115
1.709109 4.0826993 4.1737494 6.3465667 3.203958 3.4608397 2.8432257 2.3702931
3.156916 5.748479 2.04927 2.5441434 2.6068783 4.4597044 2.5135844 2.1935334
4.338315 2.1647594 3.0372171 2.1007738 4.040962 4.8182335 3.5526726 2.3776617
4.050906 2.3610072 3.6687448 2.995784 6.7294855 3.8907492 2.988998 2.902098
1.770615 2.1099825 3.834053 2.6266947 4.0544605 2.7097096 2.8805356 4.445402
3.7252283 3.0691102 3.6033306 1.9129969 3.6472907 4.6547456 1.9101715 4.883418
2.3906088 3.502582 3.7979228 4.1639514 1.9226164 2.3277826 4.978846 5.915704
3.7665546 4.8077383 4.7512383 1.8864907 4.211424 5.037316 3.9392166 2.4233053
3.952395 4.1117444 4.279637 4.407995 3.0396075 5.4512434 4.902656 2.9649193
2.5744598 3.1881328 3.0477219 5.2973323 5.2929435 2.4222298 3.275088 1.837376
3.2859676 3.9833496 3.4335217 1.9523013 3.018264 4.5165486 4.246826 2.0184975
2.4588618 4.5623913 2.429174 2.7539299 3.153112 3.1199508 2.316798 3.4881203
4.6721826 1.5047108 1.8999854 5.127533 3.0362628 3.740958 3.665979 4.617035
5.119124 1.885908 4.3515325 2.5111403 4.996608 2.886881 3.8047285 4.2734027
3.860597 2.924995 3.9962409 4.073843 1.7771416 2.7999647 3.0231466 2.6220088
3.2179031 4.565675 3.3589191 4.4382267 3.7274213 2.6500347 4.586596 2.96783
2.6877556 2.9142802 4.9437976 1.8144381 3.9529216 3.465947 4.080614 3.2285416
5.1898785 1.9327949 3.8354552 4.055965 3.652909 3.3873005 2.7696273 4.077158

features.35.bias f4 [256]
00000000: 858d a5bf 2c8a 02c0 2518 3440 da96 9ebe
00000010: ae31 06c0 e70c 0240 fa38 b1bf 30a4 ffbe
00000020: 4380 81bf 5fab 8cbf 324f eebf ecc0 10c0
00000030: d60e 2ac0 3d58 0040 ecb9 383f 5989 73c0
00000040: 3fd6 c8c0 86dc a7bf b16c 8abf 18b0 f63d
00000050: 1812 3bc0 df14 0a3e dc81 18c0 3579 c1bf
00000060: 1348 8f3f e99d 1e3e 9a82 c1bf 2dcd 52be
00000070: 015f 4ec0 6cc7 c93f 2b5d 1840 8229 a13f
00000080: a483 9b3d ddb7 38c0 6319 d33f 6eb8 9bbe
00000090: 2f7f 8cc0 4f93 f0bf 011d 12bf a602 063c
000000a0: 7166 873d c593 3bbf e079 adbd a10e 08bf
000000b0: 0518 ed3e 3bef f93e a10f 0e3f 734b e6bf
000000c0: c755 db3f de94 06c0 e941 d8c0 54c2 1240
000000d0: 44fd 8fc0 606d e4c0 fd43 f73f 7d62 113f
000000e0: a190 eac0 21b2 e93f 507b c93f 17ac 85bf
000000f0: e98e bebe 9f40 5d3f 8409 cabe 8800 a0bf
00000100: f6e0 32c0 5db2 743f 5a42 6fc0 c16c f93f
00000110: ca83 03c0 5e04 39c0 e097 81c0 d925 00bf
00000120: 3dfe 0a40 0a89 0d40 99e1 fc3d 2904 80bf
00000130: 0cb9 1c40 cf01 26c0 8a56 84be 94d1 85bf
00000140: ee20 9fc0 a9bc ef3d be3a fd3f 2ccc e8bf
00000150: 82e8 8ac0 da4d 26c0 c09a 70bf 616b 33c0
00000160: c1b2 80c0 192a 5cc0 c076 0f3f c7cf 1abe
00000170: 76a5 ddbf b400 86c0 ff76 bd3f 166c c5bf
00000180: dd35 87c0 1e05 0c40 604f 1440 7e51 d83f
00000190: bc3a 6abe a19d 0a40 15ac 683f a4e2 92be
000001a0: 5a89 07bf 91ce 12c0 4ccd 29bf 318a 5abf
000001b0: 0ce2 8d3f 913c 1540 523b 6c3e ebbd df3f
000001c0: cff2 1040 574e f0bf 85c4 d8bf e6a0 fbc0
000001d0: dec8 2fbf 13e1 88bf 3bc8 d33e cd46 203f
000001e0: 1ccf c1bf b4cb 9bc0 d9c6 d03f 9bed 0a40
000001f0: d537 f73e c942 3ec0 2346 5a3f 9421 a03f
00000200: 71d2 85bf 2e2d 0340 a8a3 913e 2a18 dc3f
00000210: 4d1b 87bf f95f 41c0 0669 e7bf f7f2 923f
00000220: 613c 18bf 7c2a 953f 2d37 8cbf 7183 0ebf
00000230: ce6e 5dc1 c389 60bf 4de7 253e b653 6d3e
00000240: f93a 1e40 54ac d83f f79a 98bf e1a7 9f3f
00000250: 6a08 02c0 09ee 32be 3e04 ac3e edb3 4ac0
00000260: c749 86bf db69 e2be 28a0 9cbf 3413 0a40
00000270: 4fed 2dc0 80b2 51c0 9c24 1040 2c78 cfbf
00000280: 355e 3c3f a961 28bf 664a 17c0 b822 4fc0
00000290: 8fee df3f dc4a 873f 28ae 8cc0 c380 24c0
000002a0: a25f 02bf d6da 91c0 d8a5 2dc0 3241 2b40
000002b0: b73e f1bf ca54 f8bf 77ac 04c0 3de7 8b3f
000002c0: 8b1d 11c0 20cb 35c0 fde3 9fbf 7d6f debf
000002d0: cc3f 89be 67df d6c0 9fc2 54c0 0f72 023f
000002e0: 3121 d4bc 65ef 56bf 0f2a bb3c 2392 fdbf
000002f0: a332 b5c0 52ea 1340 cac0 64bf d1c7 0140
00000300: 5cae 1cbf f386 24bf c53a 06bf da72 f63f
00000310: 15d9 ce3e 10d6 65c0 de52 04c0 5fdc c93f
00000320: c5cd 0340 5f60 82c0 db20 dd3f 0a17 c0bc
00000330: 74e8 393e 02f9 b4bf d156 d03f f202 bcbf
00000340: c66a a1c0 a669 4c40 62ee 1240 1a98 1bc0
00000350: f66f b1bf 8c3b 30c0 0793 13bf 1a5c 84c0
00000360: 27d9 9bc0 d05e ea3f 02ba 91c0 4ff2 963f
00000370: 46ea 51c0 3d24 74bf a266 79c0 43ec 90c0
00000380: 5c7a 43c0 eb9a a3be 72a9 3dc0 4830 8dbf
00000390: 7223 4140 80ad 4a3f 3b54 0ebf 7500 d43f
000003a0: dcee 97bf 38ca 51c0 8060 e7be 150d 02c0
000003b0: 73d6 76c0 7451 273f e85d 4dc0 515c 833c
000003c0: fc97 603f 98fb 353f 7e07 6bc0 8e87 0240
000003d0: 202a e6bf adb8 86be 7113 51c0 098c 71be
000003e0: 425e b0c0 eb77 f23f e22d 20c0 f566 22c0
000003f0: a4db e0bf c740 f1bf 43d7 2b3f 1f6f 81be
-1.2933813 -2.0396833 2.8139737 -0.30974466 -2.0967822 2.0320375 -1.3845513 -0.49929953
-1.0117267 -1.0989798 -1.8617918 -2.261775 -2.6571555 2.0053856 0.72158694 -3.805258
-6.276153 -1.3114173 -1.081442 0.12045306 -2.9229794 0.13484524 -2.382926 -1.5115114
1.119387 0.15489925 -1.5117981 -0.20586081 -3.2245486 1.5763984 2.3806865 1.2590792
0.07593468 -2.8862221 1.6492122 -0.30414146 -4.3905253 -1.8794955 -0.57075506 0.008179342
0.06611336 -0.73272353 -0.084705114 -0.5314732 0.46307388 0.4881533 0.554926 -1.7991775
1.7135552 -2.1028361 -6.7580457 2.2931108 -4.499666 -7.1383514 1.9317623 0.56790906
-7.330155 1.8257486 1.5740757 -1.0443143 -0.37218407 0.8642673 -0.39460385 -1.2500162
-2.7949805 0.9558466 -3.7384248 1.9486314 -2.0549188 -2.8908916 -4.0497894 -0.5005775
2.1717675 2.2114892 0.12347717 -1.000127 2.4487944 -2.5938604 -0.25847274 -1.0454583
-4.9727697 0.11705906 1.9783552 -1.8187308 -4.3408823 -2.5985017 -0.9398613 -2.803429
-4.0218205 -3.4400694 0.56040573 -0.15118323 -1.731612 -4.187586 1.480194 -1.542361
-4.225325 2.1878123 2.3173447 1.689987 -0.22873968 2.165871 0.90887576 -0.28688538
-0.52943957 -2.2938578 -0.66328883 -0.85367113 1.1084609 2.3318217 0.23069504 1.7479833
2.2648199 -1.8773907 -1.6934973 -7.863391 -0.68665874 -1.0693687 0.413637 0.62608033
-1.514133 -4.868616 1.6310683 2.1707523 0.48284784 -2.9728262 0.8526327 1.2510247
-1.0454847 2.0496325 0.28445172 1.7194874 -1.0555207 -3.0214827 -1.8078926 1.1480397
-0.5946713 1.165359 -1.0954338 -0.55669314 -13.839552 -0.8771021 0.16201515 0.23176464
2.4723494 1.692759 -1.1922292 1.2473108 -2.0317636 -0.17473616 0.33596987 -3.1672318
-1.0491265 -0.44221386 -1.2236376 2.157422 -2.7176092 -3.2765198 2.2522345 -1.6208549
0.7358125 -0.6577402 -2.363916 -3.236494 1.7494677 1.056972 -4.3962593 -2.570359
-0.50927174 -4.5579634 -2.7132473 2.6758542 -1.8847264 -1.9400876 -2.0730264 1.0929943
-2.2674282 -2.8405228 -1.2491452 -1.7377774 -0.26806486 -6.714771 -3.3243787 0.5095529
-0.025894733 -0.8395904 0.022847204 -1.9810222 -5.6624312 2.3111768 -0.8935667 2.0278208
-0.6120355 -0.64268416 -0.52433425 1.92538 0.40399995 -3.5911903 -2.0675578 1.5770377
2.0594342 -4.074264 1.7275652 -0.023448486 0.1815508 -1.4138491 1.6276494 -1.4688399
-5.044284 3.1939483 2.2957997 -2.4311585 -1.3862293 -2.7536345 -0.5764622 -4.136243
-4.870258 1.8310184 -4.553956 1.1792697 -3.279924 -0.95367795 -3.8968892 -4.5288405
-3.0543432 -0.3195413 -2.9634671 -1.1030359 3.0177884 0.7917099 -0.55597275 1.656264
-1.1869769 -3.2779675 -0.4519081 -2.0320485 -3.856839 0.6535866 -3.2088566 0.01603523
0.8773191 0.71087027 -3.6723323 2.0395236 -1.7981606 -0.2631277 -3.2668116 -0.23588575
-5.511506 1.8942846 -2.5028005 -2.537534 -1.7567029 -1.8847893 0.6712534 -0.2528009
