sharding/shards_out/shard_011.pt (torch, 3556 bytes, 2 tensors)

features.27.weight f4 [256]
00000000: aa99 5740 5922 0a40 a18e 8140 4659 a640
00000010: b981 8b40 14a1 6140 d15b 3540 d6e3 4f40
00000020: 172f 9e40 476c a640 2ee8 9440 1cd8 9140
00000030: 2be2 7640 9417 9540 f0a0 d640 7242 2340
00000040: 8ca4 a940 34cf 8c40 8c03 8b40 8f10 5740
00000050: ede0 8340 56d1 6f40 ea37 5e40 48c5 9e40
00000060: 0ea8 5840 900f 8b40 8a3a a640 ed88 9140
00000070: 130f 7940 9df6 6f40 aee7 4d40 214f 6d40
00000080: 1793 6640 8f00 b140 dbba 6540 1b06 7440
00000090: cc01 9d40 4930 7840 8755 5140 cf04 4440
000000a0: 5efa 8f40 4d05 d63f dace 7840 9743 9340
000000b0: a5df fc3f 08e2 8640 8a4f ab40 5aee 8f40
000000c0: 8e90 4740 c48d 7840 b33e 5840 4487 8740
000000d0: d429 7e40 8e53 1c40 e4a9 4d40 f18a 9040
000000e0: 760a cd40 1c75 aa40 95d2 5f40 d1bb 5a40
000000f0: b78c cf40 bef2 4c40 6ce9 a540 8bc8 9b40
00000100: 6533 8640 c1e2 b940 f7fb 8340 850a 4440
00000110: 79ab 9d40 1332 6f40 d343 7f40 92c2 6f40
00000120: 7518 8d40 9d94 3f40 2a89 5140 86bc a040
00000130: a461 8040 a11c 5640 b91b 9940 7ec9 8240
00000140: 6931 8540 6d17 1740 b821 7240 e13c 6440
00000150: 1419 4640 4d1a 8840 dfce 9b40 69fc 9a40
00000160: d36d c440 317a 5e40 06df 8640 0d2d 7c40
00000170: 21dc 8140 dc69 8640 045a 1f40 8b84 9540
00000180: 1615 2d40 a32f 2040 d6f5 6b40 edf5 8840
00000190: 88c2 a040 1d02 2740 e472 f340 70d7 7f40
000001a0: ffa7 8f40 4d68 7940 1e22 5b40 64c2 9240
000001b0: 0870 8140 0808 3840 03bd 9140 8d2e bc40
000001c0: b0be be40 e45e af40 3095 4e40 8f68 1840
000001d0: 9c86 3d40 4e3b 1240 10f2 9340 708f 4840
000001e0: 88b5 4340 900b 6740 79fc 7e40 f107 6740
000001f0: 3ae1 8c40 ed8e 7740 925a 8240 6840 9840
00000200: 6ef4 6b40 3e89 9c40 dea2 9940 67a5 bb40
00000210: c259 ae40 bb84 8b40 f21a 8c40 be92 bc40
00000220: 09c7 bf40 86f4 8a40 258d 8c40 cacc b140
00000230: e83f f53f 3423 8440 60ed 7840 8921 9940
00000240: 7ed8 7340 11ca 7440 0019 b540 b8d3 0440
00000250: 524b 9540 4a51 b540 5302 6740 e569 7940
00000260: 00aa af40 35d5 a040 d51a 1740 50ce 4740
00000270: 9d9b 7b40 94c7 ab40 c360 6e40 f413 3a40
00000280: e613 7140 1bd8 9c40 df2b 8940 da91 1140
00000290: 564c 8640 beae b140 4529 ac40 e209 c040
000002a0: 4ba6 8640 6f81 9240 062c 4e40 2eb3 8a40
000002b0: fa21 d440 5b63 9e40 d09a 8840 54e4 4d40
000002c0: 46f8 3f40 b981 8b40 d90d 7640 1c84 8540
000002d0: fb4e 8140 23d9 1740 290d 5540 fb18 8040
000002e0: a86c 3f40 6772 1440 1989 fd3f 438e c140
000002f0: 2526 a540 e785 5540 082c 3d40 b60a c340
00000300: 0ff5 7240 4c32 9440 c92c a440 6c72 6f40
00000310: 4e94 6040 0cc8 3c40 aa54 3e40 f4da 9840
00000320: 0874 b140 502d 4940 7e0a bc40 60df 7440
00000330: 7f91 ab40 48d4 3f40 28fb 7440 9d4e 3540
00000340: 545a 8340 6c93 9540 e449 9440 8b65 5640
00000350: d5ba 6040 e88b 4a40 427f 7a40 9fe0 4940
00000360: e04d 9e40 1afd 1f40 7568 9440 e901 8040
00000370: 8d8a 2940 9cac 5640 6626 7940 c8d3 9340
00000380: adfc 5e40 472b 9140 2cd4 4940 dd53 9140
00000390: dedd 5d40 7ba6 1940 2255 8f40 d809 5940
000003a0: ea53 3740 8bba 0c40 9223 5e40 f2ff 8b40
000003b0: 9aff 7240 6daf 8a40 68c0 9a40 787d 7d40
000003c0: 82d9 7740 3051 8740 0cd9 ac40 9ded 3140
000003d0: 2701 9d40 3a0b 2140 ea4c fb3f 6229 e740
000003e0: aa10 7140 3b48 8040 8c49 6a40 f815 c840
000003f0: 69a1 2740 9630 9e40 b0af 0340 283a 0340
3.368754 2.1583464 4.0486608 5.1983976 4.3595853 3.5254564 2.833729 3.248281
4.9432483 5.2007174 4.6533422 4.5576305 3.8575542 4.659128 6.7071457 2.5509305
5.3013363 4.4002934 4.344183 3.3603857 4.1212068 3.7471519 3.4721627 4.961582
3.3852572 4.3456497 5.194646 4.5479646 3.891545 3.749427 3.2172656 3.7079546
3.6027277 5.531318 3.5895298 3.8128726 4.9064693 3.877947 3.2708452 3.0627935
4.4993124 1.6720368 3.8876252 4.6020007 1.9755751 4.2150917 5.3534594 4.4978456
3.118198 3.8836527 3.3788269 4.235262 3.971303 2.4425998 3.2134943 4.5169606
6.407527 5.3267956 3.497228 3.4177134 6.485927 3.2023158 5.184744 4.8682303
4.1937737 5.80893 4.1245074 3.063142 4.9271817 3.7374313 3.9885147 3.7462506
4.4092355 2.9934456 3.2739968 5.023013 4.011919 3.3454974 4.784634 4.087096
4.1622815 2.3608048 3.783308 3.5662158 3.0952806 4.2532105 4.869003 4.843312
6.1384063 3.476208 4.2147245 3.9402497 4.058121 4.2004223 2.489869 4.6724296
2.704412 2.5029075 3.6868796 4.28002 5.0237465 2.609504 7.6077747 3.9975243
4.4892573 3.896991 3.4239573 4.5862293 4.0449257 2.8754902 4.5543227 5.8806825
5.9607773 5.4803333 3.2278557 2.3813818 2.961341 2.2848697 4.6232986 3.1337547
3.0579548 3.6100807 3.9841597 3.6098597 4.4024935 3.8680985 4.073556 4.757862
3.6867938 4.891753 4.8011312 5.8639407 5.448457 4.3599524 4.378289 5.892913
5.9930463 4.342349 4.3922296 5.5562487 1.9160128 4.1292973 3.8894882 4.7853436
3.8100886 3.8248332 5.6593018 2.0754223 4.6654444 5.666173 3.6095169 3.8970883
5.489502 5.0260262 2.3610127 3.1219673 3.931373 5.3681126 3.7246559 2.9074678
3.7668395 4.90138 4.2866054 2.274527 4.1968184 5.552581 5.380038 6.0012064
4.2077994 4.5783 3.221437 4.3343725 6.6291475 4.9496284 4.268898 3.217061
2.9995284 4.3595853 3.8445952 4.1723766 4.040891 2.372628 3.3289282 4.0030494
2.9910069 2.3194826 1.9807464 6.048616 5.1609063 3.3362978 2.9558125 6.0950575
3.7962072 4.6311398 5.130467 3.7413588 3.5090518 2.94971 2.9739175 4.7767277
5.545414 3.1433907 5.876281 3.8261337 5.3615108 2.9973316 3.8278294 2.8329232
4.1047764 4.674246 4.63402 3.3499477 3.5114033 3.1647892 3.9140172 3.1543348
4.947006 2.499823 4.637751 4.000233 2.6490815 3.3542852 3.8929687 4.619602
3.484172 4.536533 3.153575 4.541487 3.4666667 2.4007862 4.479142 3.3912258
2.8644967 2.1988857 3.470921 4.3749933 3.7968507 4.3339143 4.835987 3.960783
3.8726506 4.2286606 5.401495 2.7801278 4.9063907 2.5163102 1.9632847 7.2238016
3.766642 4.008817 3.660739 6.2526817 2.6192267 4.943431 2.057598 2.0504246

features.27.bias f4 [256]
00000000: 7d5f 89bf 9a89 8e3f 9807 f3bf 5b87 bbc0
00000010: df05 a5c0 eca8 77bf dc9d d53d afe5 38bf
00000020: 0dd8 91c0 abdc d0bf 5afb 71c0 d6a5 3ec0
00000030: 1ade 69bf 29c4 2ac0 b4d0 ccc0 85da ebbc
00000040: cfc1 70c0 5079 a7bf 099c 58c0 8e41 cfbe
00000050: a3bf 03c0 1479 dabf 6e3e 113f 2d63 aec0
00000060: d35a 91bf a5b8 d2bf 4284 87c0 1695 35c0
00000070: c050 2bc0 2ada 0ec0 33ed b2bf c9b4 9dbf
00000080: 8fd2 06bf 0477 bdc0 f341 ca3f 4933 52bf
00000090: bea0 56c0 e54a c9bf 71a1 d0be 30e5 003f
000000a0: 4725 4bc0 183f 2e40 2fbe f2bf ca97 a7c0
000000b0: fb72 ec3f 5e96 85bf 235b 8fc0 2b2c 15c0
000000c0: 4e06 a7be beaa 65bf 8202 7dbe c39d 99bf
000000d0: acad e2bf b145 323e 136d 46bf d101 1bc0
000000e0: e8de 8dc0 4fd8 40c0 88b1 8cbf c3f1 31bf
000000f0: 22c0 b2c0 d3a5 ca3f d5af 95c0 a15b 80c0
00000100: 5068 bebf ce2c 91c0 1e56 37c0 9fab 70bf
00000110: 1971 92c0 5c4e ebbf b3f5 88bf 6555 b6bf
00000120: 4354 67c0 c94f 253f 5020 71be fbff 90c0
00000130: 2ae0 10c0 309e 51bf 2dd7 7bc0 2605 d5bf
00000140: 7aa3 a2bf df19 553f 44e3 dbbf f11c 85bf
00000150: bc14 733e df17 99bf abf7 18c0 ee9c 4fc0
00000160: 884d 2ec1 2d28 e9be b002 82bf 7fec 08c0
00000170: d0a7 ecbf 3fcc 42c0 6a55 483e e4f6 5dc0
00000180: 5623 d93c 6f82 c0bd ddc6 bdbf 1360 27c0
00000190: 5d46 bec0 9736 4c3d 2344 cbc0 4b0e 1cc0
000001a0: ebb4 6ec0 ecc2 dabf b0a6 4dbf a101 68c0
000001b0: 3c81 f8bf 68a2 02bf a1dd dbbf ae47 96c0
000001c0: 7baf cbc0 b227 b3c0 d7d1 5dbf 2e20 de3f
000001d0: 69f1 18bf 6ed5 513f c06b 52c0 3284 17bf
000001e0: 0f08 dcbe b698 8dbf b062 a8bf 95a2 3b3d
000001f0: cc15 37c0 955f 38bf 2404 97bf dae4 49c0
00000200: 1c10 e6bf f32b 85c0 e8f5 a9c0 bce5 ccc0
00000210: f616 c1bf ff5d 13c0 eeb3 4ac0 3925 0ac1
00000220: 4bff 79c0 06a0 3ac0 5344 e0bf b823 cac0
00000230: 51da 643f bbb6 20c0 d31c 81bf eda0 54c0
00000240: 6132 36c0 9545 503c e6e0 96c0 d108 a03f
00000250: 57a6 86c0 1e09 8ac0 6f7b 8fbf d6e8 33c0
00000260: 48d0 22c0 c7a0 dac0 3290 323e 2304 a7be
00000270: 4eb2 16c0 0d87 b2c0 6778 2bc0 4ebc d1be
00000280: c0df aabf ee84 67c0 06e7 17c0 b53c a53f
00000290: e598 57c0 a20e a3c0 a66f 31c0 f36d b9c0
000002a0: a75f 24c0 f4a0 20c0 5533 1abf 2e60 f8bf
000002b0: 4ac7 c4c0 f9bd 86c0 c3f8 0dc0 aeca 68bf
000002c0: e8f9 1ebf 144a a3bf 778c 81bf cfe5 babf
000002d0: ba9c 08c0 a798 2a3f 8f25 5ebf b38c febf
000002e0: 9f16 0f40 cb86 7f3f b0f9 d23f 7149 85c0
000002f0: abc2 aec0 4624 d9be ea91 c23e 266e d0c0
00000300: 1c5f 11c0 95a5 88c0 54f1 7fc0 3d90 a5be
00000310: 2be5 cebf b813 12bf fe36 86bf 5af8 45c0
00000320: 9e82 32c0 c17c 9abe 4f8c 92c0 16d7 1bc0
00000330: fabe 89c0 c8e6 21bf b5fe fabf 806e b63e
00000340: d586 2bc0 4e39 3fc0 ce0e 09c0 ae86 6abf
00000350: cd43 d5bf e603 b3bf 24ac ddbf 20e2 8bbd
00000360: 6fce 81c0 ab0d 683f 24b2 2bc0 2974 37c0
00000370: 2054 123e fc6b e7bf c5ef 01c0 2ef6 3fc0
00000380: fdfa f23c 680a fdbf 1b91 e9be 6c52 efbf
00000390: 628a cbbe 5e28 a73f 6425 85c0 6977 92bf
000003a0: 93cb 303e 7f31 3c3f 4afb dfbf 4144 ddbf
000003b0: 75ef 94bf a7a2 19c0 c366 6dc0 7e98 f4bf
000003c0: d6a7 9dbf 29d7 16c0 6350 8dc0 0c5c 5a3e
000003d0: e3ac 45c0 5126 0a3f f35b 6f3e f0d5 bfc0
000003e0: 73aa f8bf ae35 2ac0 5102 66bf cbe9 eec0
000003f0: 4cac d73b 36e6 6ec0 62d7 c33f d15d 1c3f
-1.0732266 1.1135743 -1.8986692 -5.860273 -5.1569667 -0.9674213 0.104305 -0.7222547
-4.5576234 -1.6317343 -3.7809663 -2.9788718 -0.91354525 -2.6682227 -6.4004765 -0.028790722
-3.7618291 -1.3083897 -3.3845236 -0.40479702 -2.0585716 -1.70682 0.56735885 -5.4496064
-1.1355842 -1.6462599 -4.2348948 -2.8372245 -2.6768036 -2.2320657 -1.3978637 -1.2320796
-0.52665037 -5.9207783 1.5801376 -0.82109505 -3.353561 -1.5725981 -0.4074817 0.5034971
-3.1741502 2.722601 -1.896429 -5.237279 1.8472589 -1.0436513 -4.479875 -2.3308208
-0.32621998 -0.89713657 -0.24707988 -1.200127 -1.770925 0.17409398 -0.77510184 -2.4219859
-4.43346 -3.0132024 -1.0991678 -0.69509524 -5.5859537 1.5831856 -4.677714 -4.011185
-1.4875584 -4.5367193 -2.8646312 -0.94011873 -4.576306 -1.8383288 -1.0699981 -1.424481
-3.614518 0.6457487 -0.23547482 -4.5312476 -2.263682 -0.81882 -3.9350083 -1.6642196
-1.2706139 0.832426 -1.7178731 -1.0399457 0.23738378 -1.196041 -2.3901165 -3.2439532
-10.893929 -0.45538464 -1.015707 -2.1394346 -1.8488712 -3.0437162 0.19563833 -3.468194
0.026506107 -0.09399878 -1.4826313 -2.615239 -5.9460893 0.04985675 -6.3520675 -2.4383724
-3.7297924 -1.7090735 -0.8033247 -3.6250994 -1.9414439 -0.5102906 -1.7177011 -4.69625
-6.365171 -5.5985956 -0.86648315 1.735357 -0.5974336 0.8196629 -3.2878265 -0.5918609
-0.42974898 -1.1062229 -1.3155117 0.045809347 -2.8607054 -0.72020847 -1.1798139 -3.154593
-1.7973666 -4.161615 -5.311268 -6.4030437 -1.5085132 -2.302612 -3.167232 -8.634088
-3.9062068 -2.916017 -1.7520851 -6.31686 0.89395624 -2.511153 -1.0086921 -3.3223221
-2.846825 0.012711902 -4.7149534 1.250269 -4.207805 -4.313613 -1.1209544 -2.8110862
-2.5439625 -6.832126 0.17437819 -0.32620344 -2.3546329 -5.5789857 -2.6792238 -0.40963978
-1.3349533 -3.6174884 -2.3734756 1.2909151 -3.368707 -5.095536 -2.7724395 -5.7946715
-2.5683382 -2.5098238 -0.60234576 -1.9404352 -6.1493273 -4.21069 -2.2183082 -0.90934265
-0.62100077 -1.2756982 -1.0120991 -1.4601382 -2.1345658 0.6663918 -0.8677606 -1.9886688
2.2357557 0.9981505 1.6482449 -4.165215 -5.461263 -0.42410487 0.3800195 -6.513446
-2.27143 -4.2702127 -3.9991045 -0.32336608 -1.6163687 -0.5706134 -1.0485532 -3.0932832
-2.7892222 -0.30173305 -4.5796275 -2.4350028 -4.3045626 -0.6324277 -1.960898 0.3563118
-2.6801045 -2.9878726 -2.1415286 -0.91611755 -1.6661316 -1.3985565 -1.7318158 -0.06830239
-4.0564494 0.90645856 -2.6827478 -2.8664649 0.14289904 -1.8079829 -2.0302594 -2.9994006
0.029660696 -1.9768801 -0.4561852 -1.8697028 -0.39754015 1.3059194 -4.1608143 -1.1442691
0.17265157 0.73513025 -1.7498562 -1.7286454 -1.1635576 -2.4005525 -3.709397 -1.9109037
-1.2316844 -2.3568823 -4.416063 0.21324176 -3.0886772 0.53964716 0.2337492 -5.9948654
-1.9427017 -2.6595263 -0.89847285 -7.466039 0.0065818187 -3.732801 1.5300105 0.6108065
