sharding/shards_out/shard_009.pt (torch, 2532 bytes, 2 tensors)

features.21.weight f4 [128]
0	0x40880c87	4.251529
1	0x40ac06ab	5.375814
2	0x4093559a	4.6041994
3	0x4078f28d	3.8898041
4	0x408e64c9	4.449803
5	0x40a488a3	5.1416793
6	0x40a09257	5.0178638
7	0x408ed9f4	4.4641056
8	0x40a2d94b	5.089025
9	0x408f68a5	4.481524
10	0x40818a4e	4.048133
11	0x408ff15b	4.4982123
12	0x40b1bc6e	5.5542517
13	0x40a36319	5.105847
14	0x40e7f2ab	7.2483726
15	0x406a4989	3.6607382
16	0x402b876e	2.680141
17	0x4095321c	4.662367
18	0x40ae2070	5.4414597
19	0x405eff79	3.4843428
20	0x40844a2e	4.134055
21	0x40814f06	4.0408964
22	0x40753da7	3.831888
23	0x40af0f41	5.470612
24	0x40b4d9e8	5.6516
25	0x40b6396a	5.6945086
26	0x4050d62f	3.2630727
27	0x40a00843	5.0010085
28	0x4073b8e2	3.8081594
29	0x406415f9	3.563841
30	0x407de8b6	3.9673285
31	0x408404fa	4.1256075
32	0x409a843d	4.8286424
33	0x40872d23	4.22426
34	0x4087452c	4.227194
35	0x406f96da	3.7435822
36	0x4062f8ff	3.5464475
37	0x409710f9	4.720822
38	0x408970f8	4.29504
39	0x40cd07e2	6.4072123
40	0x4093d3c8	4.619602
41	0x4079a44d	3.9006531
42	0x40877907	4.233524
43	0x408fdb33	4.4955077
44	0x409cf21d	4.904555
45	0x407c12e8	3.938654
46	0x4098fe6c	4.7810574
47	0x4096268d	4.692206
48	0x40972f04	4.724489
49	0x40915ce0	4.5425873
50	0x408c4502	4.383424
51	0x40343554	2.815755
52	0x4048a9b3	3.1353576
53	0x40b75012	5.728524
54	0x408f46de	4.477401
55	0x40bd42b7	5.914394
56	0x40aa16f5	5.3153024
57	0x40682bda	3.6276765
58	0x40927e78	4.577938
59	0x409463fc	4.637205
60	0x40c13b74	6.0385075
61	0x406eeac3	3.7330787
62	0x40b57990	5.671089
63	0x405c24dc	3.4397497
64	0x4095acb0	4.67733
65	0x408109b9	4.032437
66	0x409f65bc	4.9811687
67	0x402f376b	2.7377574
68	0x40a794a3	5.236894
69	0x409c8330	4.891014
70	0x4041b024	3.0263758
71	0x408e2d82	4.443055
72	0x40954d28	4.6656685
73	0x40872d23	4.22426
74	0x40974d5e	4.728194
75	0x409f75e2	4.98314
76	0x408ea0df	4.4571376
77	0x4082d8db	4.0889716
78	0x40bdd133	5.931787
79	0x40bd3310	5.912483
80	0x40b8e3f1	5.777825
81	0x40afbf08	5.4920692
82	0x40cc2736	6.3797865
83	0x40908eb6	4.517421
84	0x40927749	4.577061
85	0x409b1a9c	4.846998
86	0x40a37adf	5.108749
87	0x4083e0ec	4.1212063
88	0x40a8273f	5.254791
89	0x40c20b64	6.0638905
90	0x409e27f4	4.942377
91	0x405a22e2	3.408379
92	0x40b777de	5.733382
93	0x406031e2	3.5030446
94	0x408b7eb9	4.359219
95	0x40b35371	5.6039357
96	0x408eebfb	4.466306
97	0x40a03f3b	5.0077186
98	0x409c3624	4.881609
99	0x40b11b92	5.5346155
100	0x40942d4c	4.6305294
101	0x40a3c6a3	5.1179976
102	0x40560390	3.3439674
103	0x4096c8de	4.71202
104	0x4052dad4	3.2946062
105	0x404006c6	3.0004134
106	0x405e9b53	3.4782302
107	0x40893f1c	4.288954
108	0x40b5f94f	5.686683
109	0x4092e671	4.59063
110	0x4097f923	4.749162
111	0x4091cc0a	4.556157
112	0x4055b3c0	3.339096
113	0x408356ba	4.1043367
114	0x406d4b1d	3.7077096
115	0x408c5a09	4.3859906
116	0x40921d27	4.5660586
117	0x40b4c1e0	5.6486664
118	0x40af52eb	5.478872
119	0x4082be8d	4.0857606
120	0x407d83e8	3.961176
121	0x40a9f5e9	5.3112683
122	0x40769038	3.8525524
123	0x40bc1c21	5.8784337
124	0x40cff5dc	6.498762
125	0x408fca4d	4.493445
126	0x40b1e852	5.5596094
127	0x40905e02	4.5114756

features.21.bias f4 [128]
0	0xbef830eb	-0.4847482
1	0xc0a3cff6	-5.119136
2	0xc04efe3d	-3.2342675
3	0xbfaa5077	-1.3305806
4	0xc0162eb2	-2.3466
5	0xc06c01a4	-3.6876001
6	0xc0271161	-2.6104357
7	0xc027b591	-2.620457
8	0xbfbeae17	-1.4896878
9	0xc058bb6f	-3.38644
10	0x3ee8e99d	0.45490733
11	0xc03b287b	-2.9243457
12	0xc0b6484e	-5.6963263
13	0xc05a1091	-3.4072611
14	0xc1486646	-12.524969
15	0xbf439cb5	-0.7641099
16	0x4063f912	3.562077
17	0xc01d6f33	-2.459912
18	0xc09704f3	-4.719354
19	0xbe3b4c1e	-0.18290755
20	0xc00cdeda	-2.2011018
21	0xbf9582d4	-1.168055
22	0xbe6135ff	-0.21993254
23	0xc0b8795c	-5.7648144
24	0xc0a24315	-5.0706887
25	0xc0cc1972	-6.378106
26	0x404bdf09	3.185488
27	0xc02fe134	-2.7481203
28	0x3ee69d95	0.450421
29	0x3e3f0fd9	0.18658389
30	0xbfbe27b4	-1.4855866
31	0xbf9e1a72	-1.235182
32	0xc054a131	-3.3223383
33	0xc004aa1f	-2.0728834
34	0xc00a3f21	-2.160103
35	0xbf9283db	-1.1446489
36	0x3ec91972	0.39277226
37	0xc03e6d1c	-2.9754095
38	0xc03a96ee	-2.915462
39	0xc1150035	-9.312551
40	0xbff1e3af	-1.8897609
41	0xbfc602cc	-1.5469604
42	0xc00adee8	-2.169855
43	0xbf7a1a85	-0.97696716
44	0xc07de413	-3.9670455
45	0x3e21e4f6	0.15809998
46	0xc038de94	-2.888585
47	0xc0624d6a	-3.535975
48	0xbf8f660d	-1.1203018
49	0xbfbee2d0	-1.4912968
50	0xbf909e4f	-1.1298312
51	0x3fcebbd6	1.6151073
52	0x3fd775db	1.6832842
53	0xc0905d90	-4.511421
54	0xbf81930d	-1.0123001
55	0xc0d4bfc3	-6.6484084
56	0xc0994eca	-4.790868
57	0x3fd13ea7	1.6347245
58	0xbf86cbd5	-1.0530955
59	0xc01c58e8	-2.4429264
60	0xc0d6b556	-6.7096357
61	0x3f867b57	1.050639
62	0xc08f6a29	-4.481709
63	0xbe0e5a68	-0.13901675
64	0xc0070b9b	-2.1100833
65	0xbea41abd	-0.3205165
66	0xc07906ce	-3.8910403
67	0x406e2e52	3.7215772
68	0xc0952e97	-4.661937
69	0xc06bbf9b	-3.6835697
70	0x401fe694	2.4984484
71	0xbfd2b8b9	-1.6462623
72	0xc07f5aa8	-3.9899082
73	0xc014fe4d	-2.3280213
74	0xbf0bd2cb	-0.5461852
75	0xc03789e5	-2.8677914
76	0xbf926e23	-1.1439861
77	0x40777d12	3.8670087
78	0xc0ebfb6e	-7.374442
79	0xc0db6253	-6.8557525
80	0xc0afe896	-5.497142
81	0xc0964db0	-4.6969833
82	0xc0dbbb2e	-6.866599
83	0xc049f523	-3.155587
84	0xbf9b85ff	-1.2150267
85	0xc080b49a	-4.022046
86	0xc09aec5c	-4.8413525
87	0xbf13178c	-0.57457805
88	0xbfb7558f	-1.4322985
89	0xc0ce064c	-6.4382687
90	0xc022dce5	-2.5447323
91	0x3f267d14	0.65034604
92	0xc0b9a09e	-5.8008566
93	0x3ffddfc3	1.9833912
94	0xbf142a51	-0.5787707
95	0xc07c0d0a	-3.9382958
96	0xc027313f	-2.6123807
97	0xc0ae414f	-5.4454722
98	0xc06beb8e	-3.686252
99	0xc09f5d04	-4.9801044
100	0xc0457925	-3.085519
101	0xc08beb36	-4.3724623
102	0x3fb285bc	1.3947062
103	0xc01fa51e	-2.494453
104	0x3fbd31ff	1.4780883
105	0x404e5877	3.2241495
106	0x3f311130	0.6916685
107	0xbfd421be	-1.6572797
108	0xc0b44fb5	-5.63473
109	0xc022ff49	-2.5468314
110	0xbfeeb877	-1.8650044
111	0xc01d15c8	-2.4544544
112	0x4097fd45	4.7496667
113	0xbea8a604	-0.3293916
114	0xbda75939	-0.08171315
115	0xbf06db0b	-0.52677983
116	0xc0051d9e	-2.0799327
117	0xc0a6fd05	-5.218386
118	0xc08d3f75	-4.413996
119	0xbf60bafc	-0.87785316
120	0x3e901986	0.28144473
121	0xc092fb7d	-4.5931993
122	0xbd90db50	-0.070730805
123	0xc0cef6dd	-6.4676347
124	0xc1031da5	-8.194737
125	0xc02e3b5d	-2.7223732
126	0xc0b67e82	-5.702943
127	0xbf177ae3	-0.59171885
