sharding/shards_out/shard_003.pt (torch, 1956 bytes, 2 tensors)

features.1.weight f4 [64]
00000000: 3bf8 c140 cad0 7a3f d6c4 5440 ee07 2a40
00000010: 5fb9 8940 ba11 1c3f c437 8240 2ceb 5240
00000020: 0b59 a63f c62c 823f 92ca 1540 18a6 3241
00000030: 878a 3640 7119 b43f 2296 3340 e162 723f
00000040: 6222 933d da07 763f 4c12 363f 1ca5 0d40
00000050: 7301 8040 99a6 f23f 2d82 a23f 8567 3a40
00000060: e30c 5240 16c7 8d40 ceee 7c3f 0ba5 ed3f
00000070: cf78 1340 5be8 3e40 601c 853f 9e6a 1041
00000080: 2004 4240 79e1 883f 028e 4b3f d5d7 2d3f
00000090: 6d35 1c40 0b2d 7540 116f 8c40 31da ed3f
000000a0: b249 0f40 6e2d 673f 5c0b 7e3f 56ec d540
000000b0: ea8d dd40 ba7c 1b40 c1ea bd3f 50a6 2640
000000c0: ec5f 4340 56f5 0941 b1a6 d140 aa3a 993f
000000d0: e4fd b33f 1918 1540 0dd9 803e b9f9 6e40
000000e0: edbf dd3f fc0a 0440 7d02 3d3f 808a 4440
000000f0: df45 cd3e d2e2 883f 120a e93f 5bcf 7a3f
6.0615516 0.97974837 3.324514 2.656734 4.3038783 0.6096455 4.0693073 3.2956038
1.2995924 1.0169914 2.340489 11.16555 2.852205 1.4070264 2.8060384 0.9468213
0.071842924 0.9610573 0.7112167 2.2132025 4.000177 1.8957092 1.2695976 2.9125683
3.2820365 4.4305525 0.9880189 1.8565992 2.3042486 2.9829319 1.0399284 9.02603
3.0315018 1.0693809 0.7951356 0.6790746 2.4407609 3.8308742 4.388558 1.8582212
2.238873 0.90303695 0.99236083 6.6850996 6.9235735 2.4294877 1.4837266 2.603901
3.0527296 8.622396 6.551598 1.1971028 1.4061856 2.3295958 0.25165597 3.7339919
1.7324196 2.0631704 0.7383192 3.0709534 0.4009237 1.069422 1.8206198 0.9797265

features.1.bias f4 [64]
00000000: 4a48 28c1 2cfa eb3e 97da 07c0 e38d 99c0
00000010: 2120 a5c0 4358 033f 55a0 8dc0 d58c 083f
00000020: 500c 8ebe 742e 3b3c 894a 613f 2915 65c1
00000030: dd62 a4c0 3881 c3bd 13e2 70c0 7173 5e3f
00000040: 69e5 5641 7a65 873e 548d 86bf 00d3 9c3f
00000050: 1879 b6c0 1947 71c0 6151 0a3f b5e0 d33e
00000060: bec9 f43e 2ad9 a0c0 cf14 793f 4ec1 083f
00000070: 810b fb3f a635 843f 8395 fabf 744a 54c1
00000080: 4360 c83f b70a d83e d1d9 973f 92d0 553f
00000090: 7974 613f 6b73 4dc0 f6cd fbc0 eadc 083f
000000a0: e772 6b40 ab28 bb3f fffa 833d f53f 37c1
000000b0: 5987 50c1 c215 57c0 6d26 25be 6056 13c0
000000c0: 4157 b53e 911e 49c1 e52d 37c1 c4f0 353f
000000d0: bdfc 31bf 76f5 0e40 7aa0 debe b776 7ec0
000000e0: e4c3 52c0 e953 6bc0 1de0 6e3f 90bd bc3f
000000f0: 61a5 4ebf 8394 cb3e 7a75 49c0 f3ac b03e
-10.517649 0.46089303 -2.1227167 -4.79857 -5.160172 0.5130655 -4.425822 0.5333989
-0.2774377 0.0114246495 0.88004357 -14.317666 -5.1370683 -0.09546131 -3.7637985 0.868949
13.431008 0.26444608 -1.051188 1.2251892 -5.702282 -3.7699645 0.54030424 0.41382375
0.47810167 -5.0265093 0.97297376 0.5341996 1.9612886 1.0328872 -1.9576877 -13.268177
1.5654377 0.42195675 1.1863347 0.8352138 0.8806835 -3.2101696 -7.8688917 0.5346209
3.678888 1.4621786 0.06444358 -11.4531145 -13.033044 -3.360703 -0.1612794 -2.302147
0.35418132 -12.5699625 -11.448705 0.71070504 -0.69526273 2.2337317 -0.4348181 -3.9759958
-3.2932062 -3.6769965 0.9331072 1.474535 -0.807211 0.39761743 -3.1477952 0.3450695
