sharding/shards_out/shard_008.pt (torch, 591844 bytes, 2 tensors)

features.20.weight f4 [128, 128, 3, 3]
000000 8d ab ea 3b c7 db b7 bc 68 e6 d5 bc b4 af 1d bc
       0.0071615637 -0.022443665 -0.026110843 -0.00962441
000010 91 f9 9a bb 3b 45 0e 3c d7 6f 43 3c cf ac 52 3c
       -0.0047294577 0.008683498 0.01192852 0.012858584
000020 ab 03 89 3c ac bf 8d 3a ab ae b3 bc 2e 4c 06 3d
       0.016725382 0.0010814569 -0.021933874 0.032787494
000030 b1 26 e1 bc 87 e4 3e 3b e3 79 95 3b 13 ab cf 3c
       -0.02748427 0.0029127912 0.004561649 0.02535013
000040 8a 6a 1a 3d d6 34 83 3c 6c 11 3c 3d d2 6d 2b 3c
       0.03769926 0.016016405 0.045915052 0.010463195
000050 30 0d f7 3c 7e 81 2b bd 80 6c 3d 3c d8 65 ff bb
       0.030157655 -0.04187154 0.011561513 -0.007794123
000060 60 9f 3e be c4 57 e6 bd 92 da 73 bc f8 ba 79 bc
       -0.18615484 -0.11247209 -0.014883654 -0.015242331
000070 7d 03 25 39 8a 97 cd bb 73 4f 2a 3d 2e bf d4 bb
       0.00015736926 -0.0062741684 0.041579675 -0.006492517
000080 fb 52 96 bc ba b6 b5 3d 78 c8 62 3c 28 91 0f bd
       -0.018350115 0.08872743 0.013841741 -0.03505054
000090 1f 26 77 3c 1a ea a9 bb b0 2f 07 3c 5b 85 cb 3d
       0.015084772 -0.005185378 0.008251116 0.09937545
0000a0 a4 43 ce 3c fe 87 eb 3b 39 fb 15 3e 33 d4 81 3d
       0.025178738 0.0071878424 0.14646615 0.06339302
0000b0 52 8f 40 3d 2e d5 16 3c fb 0d 2e 3b 79 c3 ae b9
       0.04701168 0.009206099 0.0026558626 -0.00033333505
0000c0 aa 59 47 3d 55 db 88 3d 5e 31 0e 3d 0c b7 74 bd
       0.048669495 0.06682459 0.03471505 -0.05974488
0000d0 5c 27 a1 bb 6c 9b ff 3b b1 63 aa 3a 73 ca ff bc
       -0.004918022 0.00780051 0.0012999681 -0.031224465
0000e0 c7 a2 38 bd e3 f2 9d 3d 42 a4 7c 3d d5 d5 b1 bc
       -0.04507711 0.077123426 0.061680086 -0.021708408
0000f0 50 70 10 3e 86 4d 52 3d 02 c2 ac bd d7 81 8b 3c
       0.14105344 0.051343463 -0.084354416 0.017029686
000100 20 99 7d bc d0 fe 2a bd 06 70 cf bc 12 b6 b8 bb
       -0.015478402 -0.041746914 -0.025321972 -0.005636939
000110 09 12 7e bd b2 77 92 3d b8 8a 37 3c ad 54 4d bc
       -0.06202892 0.07151736 0.011202507 -0.012532395
000120 a8 9c 4a bd 9e dd 96 bc 66 04 58 39 82 5b 79 bd
       -0.049465805 -0.018416222 0.00020601004 -0.060878284
000130 03 3d e2 bd de 0c 88 bd aa c0 f9 bb 0c 2a c7 bc
       -0.11046793 -0.06643079 -0.0076218443 -0.024312042
000140 10 83 49 bc 0a d4 b1 3c 0d 61 92 3b 3d 92 1d 3c
       -0.012299314 0.021707553 0.0044671358 0.009617385
000150 da 6e 2f 3d 2a 44 dd 3b b3 47 40 3d c5 47 05 bd
       0.042830326 0.0067525106 0.046943378 -0.032539148
000160 32 90 5c 3c 97 7d 2b bc c2 d7 3c bd 64 14 df bb
       0.013462113 -0.010466955 -0.0461042 -0.0068078507
000170 20 62 a9 3b f1 ba c4 bc db 36 e6 bc cd c8 5b 3d
       0.005169168 -0.024014922 -0.028102329 0.053658295
000180 5f 06 2c bd 87 3c 32 3b 4d 38 4d 3d 6c fe 95 3c
       -0.041998263 0.0027196722 0.05010252 0.018309794
000190 1f 9a 6e bc 70 dc fc 3a 04 82 33 3d 9b 89 cc 3c
       -0.0145631125 0.001929177 0.043825164 0.02496796
0001a0 e8 65 72 bb 6e 55 9f 3c eb a4 bf bc 1b dd 28 bc
       -0.003698701 0.019449916 -0.023394069 -0.010306622
0001b0 1a 68 ac 3d ef fc a1 3d 11 04 7d 3d 25 12 03 3d
       0.08418293 0.079095714 0.061771456 0.031999726
0001c0 1b f6 c7 3d fc 85 6d 3d 85 0d 47 bd 4d f4 0d 3d
       0.09763738 0.057989106 -0.048596878 0.03465681
0001d0 90 e1 4b 3d 78 5a 57 bc 33 c7 4d 3c d7 13 fe ba
       0.04977566 -0.013144128 0.0125597 -0.0019384575
0001e0 47 8d bc bb 83 44 e5 3c 8d 5c 21 bd 46 ac 8f 3d
       -0.0057541463 0.02798677 -0.039394904 0.070152804
0001f0 12 f3 3f 3d bf 0f fc 3c bb b5 90 bd 89 66 ef bd
       0.04686267 0.030769227 -0.07065912 -0.11689479
000200 b5 ce 95 bd ec 53 08 bd 02 25 72 be 13 94 03 be
       -0.07314817 -0.03328316 -0.2364693 -0.12849455
000210 43 69 2c 3e af 71 77 bd 9d c8 a7 bd ee c7 dc 3d
       0.16837029 -0.06041115 -0.08192561 0.10780321
000220 63 8f ae 3d ff dc 33 3c a4 cd 70 3d 2a 9d 09 3e
       0.085234426 0.010977983 0.058789864 0.1343886
000230 bd c5 8a 3d 1c dd 0c bd b3 6c bd 3d a6 ef dc 3d
       0.06775997 -0.034390554 0.09249248 0.10787897
000240 8f 33 68 3d 94 ea 64 bc 40 0f 85 bc 2f 8f 7a 3d
       0.056689795 -0.013971943 -0.016242623 0.061171707
000250 17 94 38 3d 18 6d 05 bd a9 91 ba 3d 83 17 a0 3d
       0.045063104 -0.032574743 0.09109814 0.078169845
000260 ea 9b 5c 3d ca e8 ca bc a1 22 17 bd 6a dd b1 bc
       0.05385963 -0.024769206 -0.03689826 -0.021712024
000270 30 72 36 bc bd d0 a5 3a a3 a5 72 bd f5 24 08 bd
       -0.011135623 0.001265071 -0.059239995 -0.03323837
000280 b2 ce 1e bd a0 e7 9c bc de a0 2d ba ea 60 d2 bc
       -0.03877134 -0.019153416 -0.00066233973 -0.025680978
000290 9c 20 ab bc 6c c5 ee bb 2c 77 1f bd fb 67 0c bd
       -0.020889573 -0.007286718 -0.03893201 -0.03427885
0002a0 14 06 87 bd 28 e8 91 bc 5e 75 6b bd d1 d2 2c 3c
       -0.06592956 -0.017810896 -0.057484977 0.010548309
0002b0 17 ea 8c 3b 3e 8c 41 3c 39 e8 64 3c 82 50 9d 3b
       0.0043003666 0.0118132215 0.013971382 0.004800857
0002c0 f4 c7 82 3b 4a 20 01 3d fd 0b 05 3b 30 24 37 3c
       0.0039911214 0.031524934 0.0020301335 0.011178061
0002d0 0b 19 1a bd 07 87 05 3d c9 b7 46 3c 0a 38 1c 3d
       -0.03762154 0.032599475 0.012128779 0.03813938
0002e0 fb 7b f0 3c 33 2b 44 3d 84 bb 82 3c a1 c3 a5 3c
       0.029355993 0.04789276 0.015958555 0.020234885
0002f0 01 80 b4 bc f8 33 e7 bc 5c d3 0d 3d 3f a7 c4 3c
       -0.022033693 -0.028223023 0.034625396 0.02400553
000300 e1 06 e6 bd 14 ae e2 bd e7 b2 1b bd dd 0a 33 be
       -0.11231781 -0.11068359 -0.03801241 -0.17484613
000310 f4 59 04 be 7d 71 8e bd 90 79 29 bc a4 e2 e2 bc
       -0.1292494 -0.0695524 -0.010343924 -0.027695961
000320 28 11 b8 3c 39 39 10 bd 05 65 b6 3c a6 e5 11 3d
       0.022469118 -0.03521082 0.022264967 0.0356194
000330 a7 cb fb 3c f3 78 b1 bc 4b b7 31 3c dc df 9f 3b
       0.030736757 -0.021664118 0.010846923 0.004878981
000340 eb 31 91 bc f3 3f e5 bc bc 63 0c 3d 5f 99 44 bc
       -0.017723998 -0.027984595 0.0342748 -0.011999457
000350 0c c0 c9 ba 37 19 bb 3d 34 64 81 3d e5 25 35 3c
       -0.0015392317 0.09135669 0.0631794 0.011056398
000360 d4 45 fc 3b f5 a7 93 3d 81 bf 82 3d 67 5c 20 bd
       0.007698754 0.0720977 0.06384183 -0.03915062
000370 aa fa 24 bc 5c 17 dd 3c 2a 82 ab bd 3f 5b 83 bd
       -0.010069529 0.026988678 -0.08374436 -0.06413888
000380 6b 4b eb 3b c6 fb 17 bd 58 2c 11 bd 9d e2 59 3d
       0.0071806214 -0.037105344 -0.03544268 0.05319463
000390 58 07 a3 bd 28 c5 ab bd a0 01 17 bc 3c fd f3 bd
       -0.07960385 -0.08387214 -0.009216696 -0.11913535
0003a0 54 50 ba bd 07 a2 6e bd 48 0f 9c 3c 27 6d 54 bd
       -0.090973526 -0.05825999 0.019050255 -0.05186191
0003b0 d4 3a 6d 3d c4 22 96 bd 6b c2 55 be f4 8b b2 bd
       0.05791743 -0.0733085 -0.20874946 -0.087181
0003c0 fa 84 2f be e1 63 82 be 1f 4a e5 bd da 3b 36 bd
       -0.1714057 -0.25466827 -0.11195778 -0.044490673
0003d0 44 9d 69 bd f2 eb cc 3c 32 97 e3 bd 35 03 03 bd
       -0.057034746 0.025014851 -0.111128226 -0.03198548
0003e0 38 b0 13 3c d2 3b 50 3d 9f 7e 81 bd d3 0a f8 ba
       0.009014182 0.0508383 -0.06322979 -0.0018924124
0003f0 7d a0 e5 3c a5 35 1c 3d 35 5a 7e bd 91 36 41 bc
       0.028030628 0.038137097 -0.062097747 -0.011792795

features.20.bias f4 [128]
000000 18 35 de bb fc 93 cd bc ce c4 ed 3c 7a fe 92 3c
       -0.0067812316 -0.025094979 0.029024508 0.01794361
000010 c2 d3 a6 bb 94 07 47 3c 2d 99 e6 bc 90 5c d5 3b
       -0.0050911615 0.012147803 -0.028149212 0.0065112785
000020 47 5b 9d ba 64 25 85 3a 45 7b 74 bc 59 56 b3 bb
       -0.0012005352 0.0010158238 -0.014921968 -0.00547294
000030 8d 1b cf bc 4e 00 c9 bc 63 ff ad 3c 1f 84 79 3c
       -0.025281692 -0.024536278 0.021239942 0.015229254
000040 19 6b 97 3c 00 12 d3 3b 0c 7a 50 bc b7 a1 62 3c
       0.018483685 0.0064413548 -0.012724411 0.013832501
000050 21 55 8f bc cd 29 91 3c 84 d4 54 3b 7c e1 bb 3c
       -0.017496647 0.017720127 0.0032475302 0.022934668
000060 39 8a ad bb e6 82 55 bc df 33 ba bc 71 79 be bc
       -0.0052960184 -0.013031697 -0.022729812 -0.023251267
000070 20 1f d6 3c 0c 56 aa 3c 00 ee 2c bc ae f5 cc 3b
       0.026137888 0.020792983 -0.0105547905 0.0062548732
000080 85 66 90 3b 12 0a e9 3c 34 0c 28 3c 0a a9 ba bb
       0.0044067525 0.028447185 0.010256816 -0.0056964206
000090 3f 3e ec 3c e2 9f ac 3c 71 f0 74 3c 84 cb b3 bc
       0.028838275 0.021072332 0.014949904 -0.02194763
0000a0 5f 7d 4e 3c 99 1d a9 bc 11 6f 8c 3c 7c cf a8 bc
       0.012603133 -0.020643996 0.017142804 -0.020606749
0000b0 cd 29 91 bc e4 c3 d2 3c ab 39 e5 bc 49 e7 66 3c
       -0.017720127 0.025728174 -0.0279816 0.014093229
0000c0 05 7e c5 bc 57 8d 92 39 fc 81 ba 3c 2f 05 d9 bc
       -0.024107942 0.00027952596 0.02276706 -0.02649173
0000d0 ce 29 91 3b 44 69 e1 bb f6 bb e8 bb 30 f3 45 3c
       0.0044300323 -0.0068790037 -0.007102485 0.012081906
0000e0 69 b3 6c 3c 29 b6 bd bc 2b 42 87 bb 40 62 12 bc
       0.014447072 -0.02315815 -0.004127761 -0.008934557
0000f0 b2 1b 10 3b 7f a0 be 3c af 40 b4 3b c1 f4 4c 3b
       0.0021989164 0.02326989 0.005500875 0.0031273814
000100 ed 6c cd 3b b3 35 f0 3c 62 2e 98 bc df 21 a7 bc
       0.0062690885 0.02932248 -0.018576805 -0.020401893
000110 4c ca 8f 3c 16 ff 24 bc 17 23 cb 3c fb d4 ca bc
       0.017552517 -0.010070583 0.024797006 -0.02475976
000120 f7 f1 a1 bb 49 5e 9d bc 9d 9b 2e 3c e3 c3 d2 bc
       -0.0049421745 -0.019209998 0.010657218 -0.025728172
000130 95 c3 49 bc 24 8b c8 bc c7 87 65 3c 41 0a fd 39
       -0.012314697 -0.02448041 0.014009423 0.0004826356
000140 04 5d 1f ba 95 28 6d bc 59 02 d4 3a 30 9d 35 3b
       -0.0006079229 -0.014475008 0.0016175016 0.00277121
000150 ba e9 ae 3b 98 0b 96 3b 3d 6d d6 bc 34 83 5e ba
       0.005337921 0.004579019 -0.026175136 -0.0008488179
000160 4c ca 8f 3c 5b 03 a3 3b b1 76 ed 3c 6f 67 2b 3c
       0.017552517 0.0049747652 0.02898726 0.010461672
000170 14 c9 eb bc bc 96 9e 3c 50 36 02 3c d8 7f 7b bc
       -0.028782405 0.019358985 0.007947519 -0.015350305
000180 90 86 41 bc 94 f2 b3 bc c9 78 52 3b d8 f6 b1 bc
       -0.011811867 -0.021966256 0.003211545 -0.02172415
000190 c0 38 ca 3c dc 62 a4 3c 38 01 e4 bc 03 f5 7b bc
       0.024685264 0.020066671 -0.027832612 -0.01537824
0001a0 c4 d6 c8 ba f7 7a eb 3c 51 fc cd 3b 90 8b a0 3c
       -0.0015322794 0.028745158 0.006286182 0.019597799
0001b0 32 d6 ee bc 94 28 ed bc 8a d2 82 3c 75 09 d7 bc
       -0.02915487 -0.028950013 0.015969533 -0.026249627
0001c0 ee f2 96 3b 33 fa 14 3c 84 da c6 3a 3e b5 a2 bc
       0.004606596 0.009092855 0.0015171324 -0.019861814
0001d0 dc d9 da 3c 8f 74 ae bc 1e fb af 3c 8d 3e f5 3b
       0.026715212 -0.021295814 0.021482047 0.0074842633
0001e0 23 8b 48 bc 78 51 a3 3c 5c 56 0a 3a 45 8d 07 bc
       -0.012240204 0.019936308 0.0005277151 -0.008273427
0001f0 28 80 84 3c da 08 c5 3c 8d 3e 75 bc 3d a3 8f 3c
       0.01617439 0.024052072 -0.014968527 0.017533893
