sharding/shards_out/shard_006.pt (torch, 591844 bytes, 2 tensors)

features.16.weight f4 [128, 128, 3, 3]
-0.09455452 -0.12768698 -0.0015844026 -0.07186795 -0.0022588419 -0.079281576 -0.01037547 0.040419567
0.009010312 -0.016360726 0.027976284 0.010005782 -0.029933032 0.032377347 0.004149912 -0.024468223
0.026971173 -0.02054729 0.0033450942 0.018594064 -0.0034465806 -0.012105242 0.015970338 0.016460791
-0.01768552 0.013307327 0.0040644333 -0.007740608 0.02668764 -0.052853677 0.008193634 0.040820587
-0.015641458 -0.02823791 0.01095219 0.039147943 0.017631745 -0.061590087 0.04168503 0.055385787
0.029588826 0.10169779 -0.0406895 0.0220905 0.0860679 0.03954028 0.021983765 -0.00024412005
-0.022117019 0.056743868 0.018867856 0.012122664 -0.016946543 0.048658982 -0.0023488482 0.03353177
-0.020949792 -0.15422581 -0.24410911 -0.07706825 0.037526052 -0.049003635 -0.0052591697 -0.19127885
-0.08187624 0.0012745204 0.117622174 0.10818851 -0.012847486 0.029949669 0.06990156 0.0106849875
-0.034067318 -0.06693608 -0.044363942 -0.022736697 -0.011054544 -0.0176458 -0.03071013 -0.00016282761
0.0018828777 0.0015154864 -0.071750194 0.029329598 -0.021861192 -0.023769934 -0.06706529 -0.025225563
0.09289873 -0.02599969 -0.002380074 0.02474586 -0.026049891 -0.039149556 -0.03316186 -0.008327378
0.0042085624 -0.032674238 0.03794616 0.07689042 0.05119024 0.04452018 -0.051048692 -0.047512643
0.053955242 -0.112785846 -0.13817522 -0.06368245 -0.051054038 0.07874706 -0.011079146 -0.011573469
-0.04734633 -0.049270917 0.025976203 0.052061893 -0.00071665435 -0.016348004 -0.015454711 -0.024907555
0.006269862 -0.10144995 -0.025328198 0.013808943 0.010355185 -0.00087897223 0.0029251296 0.050125334
0.0019298695 0.003575228 0.08782016 -0.012695476 -0.017706126 0.016331056 0.014471163 -0.068105415
-0.003051286 0.050758604 -0.012229252 0.076063715 -0.038577735 -0.041895993 -0.024615498 -0.04204877
-0.01992467 0.016573368 0.036737323 -0.0246426 0.09620171 -0.008831893 -0.04767722 -0.009026283
-0.014249366 0.017372495 0.10975757 0.05790399 0.0071001584 0.05644503 -0.07766244 -0.29171914
-0.30003396 0.016687227 -0.017869228 0.016291333 0.038769033 0.027905291 0.06494995 0.02558897
-0.0039961305 -0.054737102 -0.00882566 -0.050878923 0.04898868 0.0001497797 -0.007535072 0.41755748
0.051437594 -0.14116494 -0.21549957 -0.108434096 -0.01897219 0.1368156 -0.03849683 0.0795927
-0.14207418 -0.009506361 0.06620162 -0.050807487 0.01957397 0.052353818 -0.05289471 -0.039403144
-0.07576008 -0.24934399 0.050021414 0.08233285 0.14914855 -0.056199566 -0.0056032203 0.015400956
0.025562396 0.008112284 -0.022526205 -0.0063785687 -0.014086325 0.025222458 0.021068092 0.0051034605
-0.013668842 0.025513545 0.023646489 0.0061101303 0.0029203224 -0.003435689 -0.016527073 -0.013485386
0.030595452 0.014445299 0.018386615 0.02917914 -0.01493391 -0.006299307 0.019742608 0.014502679
0.04911477 0.07417385 0.12144787 0.12622936 -0.08268581 0.035301313 -5.3834963e-05 -0.10672639
-0.117384836 -0.08975615 0.031660177 -0.011140909 0.008915546 0.015241145 0.07769705 -0.026388712
0.02638687 -0.023379644 -0.0010736164 -0.011077225 0.03700526 -0.045415737 0.024608366 -0.0051822453
0.0053594485 -0.024505127 -0.043461073 -0.059869036 0.013752249 0.04547191 0.03791974 -0.024870284
00000000: cda5 c1bd 60c0 02be bbab cfba 812f 93bd
00000010: 1409 14bb 615e a2bd e0fd 29bc fd8e 253d
00000020: fd9f 133c ee06 86bc 852e e53c 4bef 233c
00000030: 1e36 f5bc 1c9e 043d fcfb 873b 9571 c8bc
00000040: a6f2 dc3c ca52 a8bc 5e39 5b3b 9452 983c
00000050: 07e0 61bb 1155 46bc 3ad4 823c c8d8 863c
00000060: 39e1 90bc fa06 5a3c f02e 853b eda4 fdbb
00000070: 0aa0 da3c 197d 58bd 983e 063c 7d33 273d
00000080: 8422 80bc 3053 e7bc d070 333c 9859 203d
00000090: 7370 903c e345 7cbd ecbd 2a3d 35dc 623d
000000a0: 4464 f23c ee46 d03d 08aa 26bd 23f7 b43c
000000b0: 5e44 b03d fdf4 213d 4c17 b43c 7afa 7fb9
000000c0: c02e b5bc 426c 683d c390 9a3c 239e 463c
000000d0: 7ad3 8abc a44e 473d 22ef 19bb 9c58 093d
000000e0: e69e abbc 5fed 1dbe bdf7 79be f5d5 9dbd
000000f0: ebb4 193d 09b8 48bd 1d55 acbb 9ade 43be
00000100: bbae a7bd cf0d a73a e5e3 f03d f091 dd3d
00000110: 437e 52bc 0259 f53c 8d28 8f3d 1610 2f3c
00000120: 2c8a 0bbd c915 89bd f7b6 35bd 4f42 babc
00000130: 1e1e 35bc ed8d 90bc d093 fbbc b4bc 2ab9
00000140: e4ca f63a 49a3 c63a c4f1 92bd a044 f03c
00000150: 3e16 b3bc 2ab9 c2bc 8759 89bd d7a5 cebc
00000160: b041 be3d 4dfd d4bc 04fb 1bbb d4b7 ca3c
00000170: 9566 d5bc 495b 20bd bbd4 07bd 8e6f 08bc
00000180: fbe7 893b 6cd5 05bd 6f6d 1b3d b978 9d3d
00000190: dbac 513d cb5a 363d 6f18 51bd 9e9c 42bd
000001a0: 2c00 5d3d 44fc e6bd ce7d 0dbe f26b 82bd
000001b0: 0a1e 51bd 2346 a13d 4e85 35bc a69e 3dbc
000001c0: 3aee 41bd 4dd0 49bd 0ccc d43c da3e 553d
000001d0: dcdd 3bba 40ec 85bc c235 7dbc ee0a ccbc
000001e0: 6a73 cd3b fec4 cfbd 157d cfbc e83e 623c
000001f0: cba8 293c d46a 66ba 88b3 3f3b 3950 4d3d
00000200: adf3 fc3a 5f4e 6a3b 0edb b33d b000 50bc
00000210: 700c 91bc b5c8 853c 7518 6d3c da7a 8bbd
00000220: 16f8 47bb 41e8 4f3d 335d 48bc 4bc7 9b3d
00000230: b003 1ebd 229b 2bbd 71a6 c9bc 553b 2cbd
00000240: 1039 a3bc dfc4 873c e079 163d 47df c9bc
00000250: 6705 c53d a5b3 10bc 3049 43bd fae2 13bc
00000260: 2c76 69bc c350 8e3c 94c8 e03d bc2c 6d3d
00000270: 72a8 e83b e732 673d 7c0d 9fbd 365c 95be
00000280: 0d9e 99be a7b3 883c 7d62 92bc 6775 853c
00000290: 47cc 1e3d a399 e43c 7b04 853d f69f d13c
000002a0: f9f1 82bb 0334 60bd 8099 10bc 6b66 50bd
000002b0: 5ba8 483d 2f0e 1d39 c4e8 f6bb 18ca d53e
000002c0: 3ab0 523d 8b8d 10be ebab 5cbe b212 debd
000002d0: 916b 9bbc 6319 0c3e daae 1dbd 7f01 a33d
000002e0: e57b 11be 91c0 1bbc b794 873d 831b 50bd
000002f0: 9759 a03c f570 563d 20a8 58bd 3165 21bd
00000300: 1a28 9bbd 0854 7fbe 41e3 4c3d 209e a83d
00000310: 66ba 183e 8431 66bd 389b b7bb 4b54 7c3c
00000320: 3b68 d13c 63e9 043c e088 b8bc 5003 d1bb
00000330: 54ca 66bc 549f ce3c fe96 ac3c ee3a a73b
00000340: 47f3 5fbc c801 d13c 48b6 c13c 7d37 c83b
00000350: e162 3f3b 4c29 61bb c963 87bc cff1 5cbc
00000360: 50a3 fa3c faab 6c3c 879f 963c 1809 ef3c
00000370: 5cad 74bc 6b6a cebb 40bb a13c a59c 6d3c
00000380: 922c 493d 76e8 973d a9b9 f83d 4542 013e
00000390: 2e57 a9bd 1c98 103d dacc 61b8 5e93 dabd
000003a0: 7667 f0bd 13d2 b7bd 1aae 013d 5c88 36bc
000003b0: 8312 123c ffb5 793c a21f 9f3d 242d d8bc
000003c0: 4729 d83c ab86 bfbc 97b8 8cba 407d 35bc
000003d0: d492 173d da05 3abd 7c97 c93c d3cf a9bb
000003e0: 509e af3b fabe c8bc 3d04 32bd 3c39 75bd
000003f0: 1d51 613c c140 3a3d bb51 1b3d c4bc cbbc

features.16.bias f4 [128]
0.01829745 -0.028316822 0.020699866 -0.028354065 0.005319298 -0.020383269 -0.019861814 -0.00763325
0.012752346 -0.002157355 -0.013338982 -0.026882824 0.016528232 0.0053612 0.019470723 0.01226814
0.027087677 0.0034557974 0.0044486555 0.0006762449 0.026975937 -0.019079635 0.02874516 0.020234281
0.012208748 -0.0001917214 0.0040715327 -0.016118519 -0.002247607 0.012901333 -0.0068650367 -0.009875037
-0.025448821 -0.020401893 -0.025746798 0.023791345 0.0066834586 -0.029713573 0.0169007 0.010983128
0.0058919657 -0.022748435 -0.0057569463 0.018893398 -0.0053518885 -0.0026736162 -0.01950797 -0.019377608
-0.02280574 0.023865836 -0.0014275076 -0.010024024 -0.008757636 -0.023251265 -0.02217111 0.010349933
0.015913662 0.01978732 0.00453246 0.003201875 -0.01744078 -0.0023428726 -0.020029424 -0.016137142
-0.01122523 -0.010713089 -0.02449903 0.00017706814 -0.023716852 0.011923607 -0.024703888 0.025057731
0.011234542 -0.0077729225 0.0035286515 0.010061271 -0.003236973 0.025895784 0.011327659 -0.018892441
0.007460984 0.011839801 0.02138893 -0.021910384 0.014251526 -0.0050120116 0.023698226 0.029173495
-0.015415487 -0.010294063 0.018483687 0.0006742238 -0.029192118 -0.02605835 0.017366285 -0.013897683
-0.0197317 0.028037472 -0.011178672 0.02410794 -0.010173012 0.019414853 0.008077882 -0.027981602
0.006213577 0.0053658555 -0.012817528 -0.02332576 0.0154341115 -0.014400515 -0.02880103 -0.0005058526
0.02271119 -0.011653568 0.023027785 0.0020095352 0.020010801 -0.021668281 0.019325435 0.02453628
-0.019079633 0.020792983 0.024033448 -0.025690928 -0.0028969175 0.011066932 -0.027385652 -0.013292424
00000000: 89e4 953c aef8 e7bc c492 a93c c946 e8bc
00000010: 814d ae3b d0fa a6bc 3eb5 a2bc 5820 fabb
00000020: 37ef 503c 6962 0dbb bf8b 5abc 5e39 dcbc
00000030: 3766 873c 01ad af3b 1181 9f3c 4f00 493c
00000040: fae6 dd3c a97a 623b 07c6 913b 0746 313a
00000050: a4fc dc3c e54c 9cbc f87a eb3c 5dc2 a53c
00000060: 3307 483c d208 49b9 7e6a 853b fc0a 84bc
00000070: 974c 13bb 1d60 533c 1af4 e0bb e8ca 21bc
00000080: 0c7a d0bc df21 a7bc f3ea d2bc 11e6 c23c
00000090: ea00 db3b e169 f3bc 5673 8a3c 94f2 333c
000000a0: 6411 c13b ed5a babc c4a4 bcbb 54c6 9a3c
000000b0: e55e afbb d637 2fbb 2ecf 9fbc cabd 9ebc
000000c0: 1ad3 babc 4982 c33c 351b bbba ce3b 24bc
000000d0: 307c 0fbc 7079 bebc 30a0 b5bc c492 293c
000000e0: 5e5d 823c 0519 a23c 0885 943b 8cd6 513b
000000f0: f7df 8ebc e18a 19bb bf14 a4bc 0a32 84bc
00000100: 07ea 37bc f485 2fbc 31b2 c8bc 5eab 3939
00000110: d849 c2bc 3c5b 433c cf5f cabc df45 cd3c
00000120: 1611 383c 00b4 febb f340 673b 07d8 243c
00000130: 6523 54bb 6523 d43c a597 393c 52c4 9abc
00000140: 457b f43b bafb 413c d637 af3c 687d b3bc
00000150: 3c7f 693c cd3b a4bb c822 c23c 41fd ee3c
00000160: 3d91 7cbc 6ea8 28bc 1a6b 973c 65be 303a
00000170: 4f24 efbc 5278 d5bc bd43 8e3c 1bb3 63bc
00000180: 60a4 a1bc d7ae e53c c026 37bc 047e c53c
00000190: b4ac 26bc e60b 9f3c 1859 043c ac39 e5bc
000001a0: 439b cb3b 0fd4 af3b 9c00 52bc aa15 bfbc
000001b0: 5bdf 7c3c 23f0 6bbc 23f0 ebbc 319b 04ba
000001c0: d10c ba3c 9bee 3ebc c4a4 bc3c 68b2 033b
000001d0: b1ed a33c ae81 b1bc 6050 9e3c 4f00 c93c
000001e0: e44c 9cbc 0c56 aa3c cbe1 c43c c875 d2bc
000001f0: 36da 3dbb 1452 353c e057 e0bc 78c8 59bc
