sharding/shards_out/shard_025.pt (torch, 3556 bytes, 2 tensors)

features.53.weight f4 [256]
3.3567536 3.8992069 3.6438348 3.6999779 3.8004038 3.2691123 3.3091245 3.820994
3.7953944 3.6607866 3.7518165 3.7779524 3.3877017 3.3008254 3.4725204 3.4285574
3.6018724 3.7234683 3.624235 3.9919355 3.4665372 4.097566 3.6655138 4.216171
3.3199341 4.109782 5.007313 3.935483 3.7608712 3.39584 4.0107946 3.7704015
3.5926435 3.5990152 3.519417 3.6889231 4.5160728 3.5259209 3.6959417 3.9547367
3.2178898 4.072098 3.0541003 3.9619052 3.9045217 3.7029073 3.1348352 3.389494
3.3336976 3.704325 3.861533 3.5939813 6.7356744 4.2744474 3.539279 3.4125574
3.1241696 3.3265436 3.515351 3.7743108 3.9407732 3.5219467 3.249637 4.876603
3.6772475 3.589663 3.8209357 3.5583415 3.6986747 3.6805394 3.3349931 3.964083
3.3322947 4.0628376 2.9766295 3.8107138 3.8680925 3.9639153 3.1840394 6.1690655
3.83229 3.9791307 3.4354792 3.9447625 2.8757393 3.3082328 3.6923757 3.684447
3.734226 3.9932 4.399748 3.7761364 3.6348896 3.3602257 3.0084996 3.4394612
3.423792 3.8313267 3.4777102 3.5348592 3.515476 3.758085 3.697641 4.146938
3.6602242 3.9815915 3.4733422 3.967299 4.689441 3.5533228 3.8240252 3.1570296
0.3019964 3.5876682 3.9006186 3.3145185 5.2163424 3.664732 3.1001165 3.3080041
3.8956368 3.6579196 3.5245562 3.384942 3.2516975 3.7471614 3.7679636 3.7955234
3.6791656 3.248794 4.365295 3.9781585 4.0513654 3.6170416 3.2503211 3.6478798
3.7826633 3.6817966 3.6532576 3.7002828 3.3060904 3.482243 3.4529402 3.5375228
3.9156554 3.8050306 4.094448 3.5648499 3.5176556 4.7801757 3.4543848 3.1185458
3.8634822 3.898591 3.3710337 4.163944 4.0169373 3.3268664 3.5424612 4.593454
3.2979198 3.6849325 3.4206035 3.5509808 3.5055382 3.8765602 4.097125 3.8073533
3.8854458 3.629201 4.169602 3.724751 3.8938797 3.6482716 6.1551933 3.411109
3.5394044 3.256332 3.606619 3.6949039 3.786535 3.4658997 3.8632138 4.0138497
4.484632 3.6299965 4.0310783 3.3594015 3.22447 3.2802076 3.6174016 5.2999597
3.6941707 3.4069328 3.7299278 3.8103375 3.5667472 3.6159613 3.805562 4.2179937
4.1801558 3.3107185 3.5543897 3.5424182 3.2405722 3.8523374 3.4442132 3.7480714
4.331194 3.7224562 4.1641335 3.5672677 3.5905752 3.9627023 3.6911507 3.7853675
3.6808515 4.5681825 3.5309906 3.5427132 3.2810607 3.3163595 3.428184 3.658518
3.4104507 3.3496377 3.5606728 3.8149695 3.9792466 4.230021 3.0392833 3.7729938
3.47755 4.4156966 3.6384678 3.8623068 3.9400513 3.7672777 3.9255807 4.4417295
3.8978488 4.124965 4.14139 4.1941156 3.9341311 2.951232 3.3746948 3.9530408
3.7874246 3.818143 3.2449992 3.6391537 3.5108776 3.792093 3.7091699 3.570381
00000000: 0dd5 5640 9b8c 7940 9734 6940 70cc 6c40
00000010: d139 7340 2339 5140 b2c8 5340 2a8b 7440
00000020: bee7 7240 544a 6a40 c31d 7040 f9c9 7140
00000030: 1bd0 5840 b940 5340 c63d 5e40 7c6d 5b40
00000040: 1485 6640 4e4d 6e40 77f3 6740 df7b 7f40
00000050: bfdb 5d40 431f 8340 c797 6a40 dfea 8640
00000060: cd79 5440 5683 8340 e83b a040 f4de 7b40
00000070: 1db2 7040 7155 5940 6e58 8040 424e 7140
00000080: dfed 6540 4456 6640 213e 6140 5117 6c40
00000090: ab83 9040 b0a8 6140 4f8a 6c40 681a 7d40
000000a0: e8f1 4d40 a04e 8240 6176 4340 db8f 7d40
000000b0: afe3 7940 6ffc 6c40 24a1 4840 78ed 5840
000000c0: 4d5b 5540 a913 6d40 5b23 7740 ca03 6640
000000d0: a58a d740 46c8 8840 8c83 6240 5767 5a40
000000e0: 65f2 4740 17e6 5440 83fb 6040 4f8e 7140
000000f0: a135 7c40 9367 6140 0dfa 4f40 220d 9c40
00000100: 0658 6b40 0abd 6540 368a 7440 debb 6340
00000110: 16b7 6c40 f58d 6b40 8770 5540 89b3 7d40
00000120: 5144 5540 c402 8240 1981 3e40 bce2 7340
00000130: d48e 7740 cab0 7d40 4dc7 4b40 fc68 c540
00000140: 3d44 7540 14aa 7e40 e4de 5b40 fd76 7c40
00000150: 1d0c 3840 16ba 5340 e24f 6c40 fbcd 6b40
00000160: 8ffd 6e40 9790 7f40 bcca 8c40 38ac 7140
00000170: 08a2 6840 f00d 5740 428b 4040 2220 5c40
00000180: 681f 5b40 7534 7540 ce92 5e40 223b 6240
00000190: 8ffd 6040 7784 7040 26a6 6c40 b7b3 8440
000001a0: 1d41 6a40 65d2 7e40 3d4b 5e40 3ae8 7d40
000001b0: e70f 9640 a469 6340 d4bc 7440 c60c 4a40
000001c0: 469f 9a3e 5b9c 6540 bca3 7940 1221 5440
000001d0: 47ec a640 f88a 6a40 4f68 4640 57b6 5340
000001e0: 1d52 7940 5b1b 6a40 5492 6140 e4a2 5840
000001f0: d01b 5040 7ed1 6f40 5126 7140 dbe9 7240
00000200: 7377 6b40 3eec 4f40 7fb0 8b40 269a 7e40
00000210: c9a4 8140 9c7d 6740 4305 5040 dd76 6940
00000220: 2817 7240 8ea2 6b40 f9ce 6940 6fd1 6c40
00000230: fc96 5340 12dd 5e40 f9fc 5c40 c666 6240
00000240: 199a 7a40 9f85 7340 b805 8340 8026 6440
00000250: 4521 6140 33f7 9840 a414 5d40 4196 4740
00000260: 4b43 7740 8482 7940 04bf 5740 073f 8540
00000270: c08a 8040 61eb 5440 afb7 6240 93fd 9240
00000280: 1e11 5340 efd5 6b40 2beb 5a40 4543 6340
00000290: bd5a 6040 9019 7840 a61b 8340 adab 7340
000002a0: 25ab 7840 d444 6840 616d 8540 5262 6e40
000002b0: 5335 7940 487d 6940 58f7 c440 9c4f 5a40
000002c0: 9a85 6240 be67 5040 d8d2 6640 4e79 6c40
000002d0: 9756 7240 4dd1 5d40 e53e 7740 7571 8040
000002e0: 1b82 8f40 dd51 6840 98fe 8040 6f00 5740
000002f0: b75d 4e40 ecee 5140 8283 6740 4599 a940
00000300: 4b6d 6c40 300b 5a40 23b7 6e40 92dc 7340
00000310: 9645 6440 e96b 6740 548e 7340 cef9 8640
00000320: d6c3 8540 d0e2 5340 1f7b 6340 fbb6 6240
00000330: 8965 4f40 b28c 7640 fd6d 5c40 67e0 6f40
00000340: 2499 8a40 b93c 6e40 9540 8540 1d4e 6440
00000350: fccb 6540 ea9c 7d40 d03b 6c40 7643 7240
00000360: 1293 6b40 8d2e 9240 c0fb 6140 d0bb 6240
00000370: e6fc 5140 3c3f 5440 5e67 5b40 2925 6a40
00000380: d344 5a40 7760 5640 10e2 6340 7628 7440
00000390: faab 7e40 555c 8740 9e83 4240 bb78 7140
000003a0: 2e90 5e40 634d 8d40 a8dc 6840 0930 7740
000003b0: cd29 7c40 141b 7140 b73c 7b40 a622 8e40
000003c0: 5b76 7940 b7ff 8340 4486 8440 3236 8640
000003d0: cec8 7b40 fce0 3c40 00fb 5740 9ffe 7c40
000003e0: 2a65 7240 745c 7440 11ae 4f40 e5e7 6840
000003f0: 38b2 6040 a7b1 7240 0a63 6d40 1f81 6440

features.53.bias f4 [256]
-2.1138659 -2.8034875 -2.1794739 -1.7190194 -2.3928668 -2.0081697 -1.9505954 -1.7614425
-2.1955624 -2.2620378 -2.1005776 -2.0502722 -2.0927348 -0.86213547 -2.225965 -1.2549052
-2.3352177 -2.0934694 -2.1454735 -2.9316761 -2.3669302 -2.6393366 -2.0723107 -3.137343
-2.159726 -2.52966 -4.2216783 -2.5460517 -2.283029 -1.9698175 -2.163247 -2.2049067
-2.2540677 -2.2226627 -2.057939 -2.2941031 -4.1437984 -2.2379255 -2.190113 -2.490419
-1.8517964 -3.1259303 -0.7539456 -3.0366073 -2.296507 -2.4667645 -1.7516462 -2.0870337
-1.9836373 -2.678736 -2.2880096 -2.2154493 -6.848687 -2.935036 -2.2307692 -2.353076
-1.9497112 -0.25893462 -2.4739158 -2.1076467 -2.9401877 -2.1327937 -1.2255509 -3.3523123
-2.3209667 -2.328497 -2.2987196 -2.0703888 -2.2814336 -2.2208672 -2.1203792 -2.600822
-2.0386665 -2.712006 -1.6546582 -2.3548508 -2.3970845 -2.3402689 -1.3399296 -5.84157
-2.2391577 -3.2088559 -2.1921642 -2.6751487 -1.6929715 -1.9670949 -2.3248374 -2.2074814
-2.2872767 -2.048331 -2.8347151 -2.1234553 -1.8189491 -1.5497975 -1.7087628 -2.0261467
-2.1568666 -2.4368615 -2.0629203 -2.190741 -2.0067756 -2.0340357 -2.2095478 -2.6247733
-2.30991 -2.552792 -2.0759943 -2.5440888 -3.4126787 -2.3240523 -2.2055466 -1.5406564
-1.7276521 -2.2391815 -3.3649032 -1.871971 -3.9129837 -2.0648751 -1.710657 -1.9091563
-2.1166873 -2.7854905 -2.219214 -1.7989101 -1.5513194 -2.603559 -2.3479435 -2.5051425
-2.1854918 -1.8830187 -3.1997006 -2.3529353 -2.9636931 -2.6084743 -1.9328138 -2.042871
-2.4726262 -2.491886 -2.1373308 -2.2069402 -2.0381577 -2.1333354 -2.3772392 -2.2162235
-2.3586395 -2.6522593 -2.3430457 -1.9088948 -2.0818646 -3.8917472 -2.0918813 -1.6667355
-2.4354975 -2.4737105 -1.9761198 -3.0878334 -2.9667754 -1.9685377 -2.433338 -2.9116163
-1.501333 -1.7744938 -2.2677853 -2.2931635 -2.2926414 -2.0736394 -2.542679 -2.470932
-2.6046574 -2.3100762 -2.4658475 -2.2575266 -2.5316448 -2.3160856 -5.671639 -2.0774844
-2.1577232 -1.5195764 -1.603065 -2.0425055 -2.470804 -2.187457 -2.324667 -2.5404475
-3.5097747 -2.2454815 -2.8243756 -2.065248 -1.8221824 -1.9773101 -2.1648197 -4.4523697
-2.7333822 -1.9155647 -2.7667813 -2.3903725 -1.9362345 -1.8794473 -2.7844758 -2.8572335
-2.995966 -1.8589885 -2.57024 -2.2190459 -1.8251773 -2.5028937 -2.3318052 -2.188405
-3.402681 -2.387933 -2.7828906 -2.1918592 -1.9179857 -2.864613 -2.4575205 -2.4048865
-2.2954984 -3.6209936 -2.1363487 -2.2100575 -1.6045942 -1.958516 -1.8408245 -2.38986
-1.8341696 -1.9382211 -2.0841734 -2.311045 -2.1444492 -2.673054 -0.9446218 -2.1421168
-1.8445356 -4.0757313 -1.0053295 -2.5712504 -2.4539363 -2.737233 -2.8039792 -3.5136151
-2.5331633 -2.5998254 -2.1911407 -3.102084 -2.6183498 -0.7105341 -0.4560815 -2.4671352
-1.9389342 -2.273814 -1.2178706 -2.2893014 -2.2426443 -2.5299282 -2.0183911 -2.1919687
00000000: 9449 07c0 576c 33c0 807c 0bc0 d408 dcbf
00000010: bb24 19c0 da85 00c0 1cad f9bf f376 e1bf
00000020: 1884 0cc0 3ac5 10c0 dd6f 06c0 a937 03c0
00000030: 5eef 05c0 e9b4 5cbf 3676 0ec0 bca0 a0bf
00000040: 3574 15c0 67fb 05c0 704f 09c0 95a0 3bc0
00000050: c97b 17c0 e4ea 28c0 bda0 04c0 3aca 48c0
00000060: f338 0ac0 f3e5 21c0 fd17 87c0 83f2 22c0
00000070: 261d 12c0 fb22 fcbf a472 0ac0 311d 0dc0
00000080: a542 10c0 1b40 0ec0 46b5 03c0 96d2 12c0
00000090: ff99 84c0 2c3a 0fc0 d02a 0cc0 0663 1fc0
000000a0: aa07 edbf 3e0f 48c0 9402 41bf c657 42c0
000000b0: f8f9 12c0 78df 1dc0 f135 e0bf f691 05c0
000000c0: d4e7 fdbf 6970 2bc0 c06e 12c0 ecc9 0dc0
000000d0: 7228 dbc0 a1d7 3bc0 ecc4 0ec0 cc98 16c0
000000e0: 2390 f9bf 1493 84be a354 1ec0 afe3 06c0
000000f0: 092c 3cc0 b17f 08c0 dade 9cbf 498c 56c0
00000100: b88a 14c0 1806 15c0 391e 13c0 4081 04c0
00000110: 0203 12c0 b022 0ec0 4bb4 07c0 de73 26c0
00000120: 8379 02c0 8291 2dc0 d7cb d3bf e0b5 16c0
00000130: d569 19c0 f7c6 15c0 d082 abbf 24ee bac0
00000140: 5c4e 0fc0 e55d 4dc0 6b4c 0cc0 a335 2bc0
00000150: 4ab3 d8bf c4c9 fbbf 23ca 14c0 6047 0dc0
00000160: be62 12c0 db17 03c0 f96b 35c0 b1e6 07c0
00000170: 53d3 e8bf c45f c6bf bdb8 dabf 63ac 01c0
00000180: 1a0a 0ac0 8af5 1bc0 e306 04c0 1a35 0cc0
00000190: 036f 00c0 a42d 02c0 3b69 0dc0 49fc 27c0
000001a0: 91d5 13c0 f260 23c0 17dd 04c0 5ad2 22c0
000001b0: 5469 5ac0 46bd 14c0 ad27 0dc0 3b34 c5bf
000001c0: b423 ddbf c04e 0fc0 935a 57c0 bf9c efbf
000001d0: 536e 7ac0 ea26 04c0 cff6 dabf 3c5f f4bf
000001e0: ce77 07c0 7a45 32c0 9a07 0ec0 b042 e6bf
000001f0: a291 c6bf b6a0 26c0 b544 16c0 4154 20c0
00000200: 19df 0bc0 c206 f1bf e5c7 4cc0 7e96 16c0
00000210: 26ad 3dc0 3ef1 26c0 7166 f7bf 66be 02c0
00000220: 823f 1ec0 0f7b 1fc0 07ca 08c0 823e 0dc0
00000230: 2d71 02c0 9188 08c0 b024 18c0 9bd6 0dc0
00000240: f3f3 16c0 9ebe 29c0 76f4 15c0 aa56 f4bf
00000250: 453d 05c0 6312 79c0 62e1 05c0 9757 d5bf
00000260: 31df 1bc0 4651 1ec0 7ef1 fcbf 109f 45c0
00000270: a6df 3dc0 0bf9 fbbf cfbb 1bc0 ec57 3ac0
00000280: ae2b c0bf 9d22 e3bf 6523 11c0 31c3 12c0
00000290: a3ba 12c0 82b6 04c0 41bb 22c0 c023 1ec0
000002a0: b5b2 26c0 4ad8 13c0 72d0 1dc0 517b 10c0
000002b0: 7806 22c0 bf3a 14c0 117e b5c0 81f5 04c0
000002c0: 2318 0ac0 7b81 c2bf 3c31 cdbf 69b8 02c0
000002d0: a721 1ec0 4cff 0bc0 58c7 14c0 b196 22c0
000002e0: 26a0 60c0 f8b5 0fc0 92c2 34c0 062d 04c0
000002f0: 463d e9bf 7f18 fdbf 688c 0ac0 d079 8ec0
00000300: bcef 2ec0 3931 f5bf f212 31c0 ddfb 18c0
00000310: 88d6 f7bf bb91 f0bf da34 32c0 eadc 36c0
00000320: e8bd 3fc0 56f3 edbf d07e 24c0 d904 0ec0
00000330: 699f e9bf 692f 20c0 4c3c 15c0 d40e 0cc0
00000340: 87c5 59c0 e5d3 18c0 e11a 32c0 6c47 0cc0
00000350: 8e80 f5bf d255 37c0 0448 1dc0 a9e9 19c0
00000360: 72e9 12c0 5cbe 67c0 f0b9 08c0 9571 0dc0
00000370: 5863 cdbf a7b0 fabf 23a0 ebbf 77f3 18c0
00000380: 12c6 eabf a117 f8bf 1963 05c0 29e8 13c0
00000390: a83e 09c0 5113 2bc0 bcd2 71bf 7118 09c0
000003a0: be19 ecbf 646c 82c0 a3ae 80bf 5e8f 24c0
000003b0: 4b0d 1dc0 d32e 2fc0 6574 33c0 12df 60c0
000003c0: 591f 22c0 8a63 26c0 a63b 0cc0 8b88 46c0
000003d0: 0b93 27c0 90e5 35bf 8483 e9be 8be5 1dc0
000003e0: ff2e f8bf 2b86 11c0 2fe3 9bbf ea83 12c0
000003f0: 7c87 0fc0 58ea 21c0 522d 01c0 3749 0cc0
