sharding/shards_out/shard_020.pt (torch, 17892 bytes, 2 tensors)

features.45.weight f4 [2048]
00000000: 1989 c63f ce49 973f d8d1 993f c3e5 b73f
00000010: 9d4b 7a3f 6baf a23f 19cf 6d3f b67c cf3f
00000020: 9b6a ba3f 0b7d b83f 507b ec3f 9be5 e23f
00000030: d41a c83f 19a2 523f 31ba 383f a7a1 d93f
00000040: f335 ba3f b1e4 8e3f 13bf bc3f 22d8 b33f
00000050: 08e8 b03f 7259 c73f c0a7 0e40 0a68 b83f
00000060: 6478 ad3f af09 bb3f e1f8 873f 04b4 723f
00000070: 7118 b43f 6b97 873f 12ff b13f d648 583f
00000080: 82e6 953f 1101 f83f 5fa1 cc3f 7065 813f
00000090: def4 6d3f f3af ea3f 4b2b 1940 6a9e 8f3f
000000a0: 3367 6e3e 226c 963f dd4d 303f 04fe db3f
000000b0: 4fe8 c13f f75b 6d3e 2f87 0e40 4a70 7b3f
000000c0: 0b49 e43f 7d95 e43f 57e7 2c3f cd09 9a3f
000000d0: 5005 c23f 4c4f da3f 2936 b43f 54a3 d33e
000000e0: c4ef de3f 3e91 e63f 087c 873f b000 343f
000000f0: b943 b83f 6b39 343f 916f 863f 9a14 1940
00000100: c576 e33f f6c0 a73f 0c2a a93f 8eb8 dc3f
00000110: 9047 863f 4d38 ce3f 2650 de3f e499 c33f
00000120: 4da8 503f f1a7 b03f 8eb8 1c40 5903 0240
00000130: 5f3b d93f 7a90 0440 256f f93e 0baa d73f
00000140: bc94 c63f 5521 e33f b56b c03f beb5 bc3f
00000150: 719f 8f3f 548c c63f 2a4f 1240 1f08 a23f
00000160: c1e4 963f 8c40 f43f c83d a33e bd12 3f3f
00000170: 9c30 c33f 9eb8 653f 7e93 9a3f 85f9 fb3f
00000180: aebb c43f e641 0f40 a34a dc3f b7ba bc3f
00000190: 43b7 d53f 4eb8 cb3f 5726 ea3f 467d a23f
000001a0: 26cd e03f cc2e d73f 775a 993f 7dfe 843f
000001b0: 2e3a d03f eecc 293f aebc 0540 31d0 0740
000001c0: 8ac4 973f 2059 a43f 3528 0b40 3b35 bf3f
000001d0: b6a8 913e f9ae bd3f e699 883f 2d3d 8a3f
000001e0: 961c b43f 80ba d63f 17fb b83f b3f0 c93f
000001f0: f93c fc3f 33e6 623f 8786 9c3f 593a f43f
00000200: 00d2 bb3f 2cf5 d03f 7924 f33e d82d c33f
00000210: 0397 0b40 c246 983f 2d3c 953f d6ce ce3f
00000220: 902d cb3f 4aef 9a3f e1f3 c73f ed15 c63f
00000230: eccd 673f 7bad c23e c336 d23f c367 913f
00000240: e7b5 d33f d37d 673f deeb c23f 4f63 c03f
00000250: 9787 7a3f 60ba 243f f6db e83f 54b3 ec3e
00000260: ed73 8f3f af5e ec3f ad29 343f d981 df3f
00000270: 5890 fb3f c12e e33f 7c87 123f 133a bf3f
00000280: 34fb da3f e1b5 ce3f 8983 9e3f 6a81 d23f
00000290: fb82 f03f 73b1 dc3f 9d22 2540 e30d e33f
000002a0: f577 c23f 13ce f93f 5c43 d63f e895 d33f
000002b0: f311 0140 7bad 843f 2489 b23f e771 943f
000002c0: e1d4 2140 9ddd dc3f 2424 e03f 9b18 ee3f
000002d0: 19f6 c93f e03a 0c40 8de4 a83f 4d86 9f3f
000002e0: 6828 d83f 233c d23f a46a 0740 6a80 0140
000002f0: 3546 9e3f e30a c93f cafb 593f 1a33 913f
00000300: 9c6a c83f 6804 0040 a16f d23f 6bc2 be3f
00000310: ce82 e23f e857 a53f c29a 6e3f 4eb3 cb3f
00000320: 30bb e13f 0772 cb3f 5c74 eb3f 5b24 e03f
00000330: 67b7 d63f 678b c03f 8ce3 a73f 2279 bc3f
00000340: 283f b03f f315 3a3f 9230 ea3f 1b4d 7c3f
00000350: 670a da3f f255 a83f 3e11 873f 9d75 e73f
00000360: 6b46 d63f a50f c63f 2807 9c3f 2ac4 ee3f
00000370: fb57 b93f 6556 053f 1d4a 843f 9b3e 873f
00000380: b05a 9c3f 3559 9c3f cae8 ec3f c66c b03f
00000390: dbef 6a3f 90cc 7d3f 3bcd e83f bd2a e03f
000003a0: 6bc8 dd3f f888 f83f 9547 5b3f 2709 e13f
000003b0: 1c48 ea3f cd87 0040 9507 cb3f 4321 ac3f
000003c0: 673c 0140 4a8a c53f e26a d33f 000e 0540
000003d0: f84a 463f b47c be3f 3c77 9b3f 6d26 7c3f
000003e0: 8041 6e3f 6022 1d40 2f46 0140 f09d fb3f
000003f0: b5fb 393f 18d7 dc3f af26 1540 4384 fc3e
1.5510589 1.1819398 1.2017164 1.4366993 0.97771627 1.2709783 0.9289413 1.6209934
1.4563783 1.441316 1.8475132 1.772632 1.5633187 0.8227859 0.72159106 1.7002457
1.4547714 1.1163541 1.4745811 1.4050333 1.382081 1.5574172 2.2289886 1.440675
1.3552365 1.461233 1.0622827 0.9480593 1.4069959 1.0593084 1.3905966 0.8448614
1.171097 1.9375325 1.5986747 1.0109081 0.9295176 1.8334945 2.3932674 1.1220219
0.23281555 1.175175 0.6886881 1.7186894 1.514902 0.23179613 2.227001 0.98218215
1.7834791 1.785812 0.67540497 1.2034241 1.5157871 1.705545 1.4079028 0.41335547
1.7416921 1.8013074 1.0584726 0.7031355 1.4395667 0.7040011 1.0502797 2.3918824
1.777062 1.3105762 1.3215957 1.7243822 1.0490589 1.6110932 1.7368209 1.5281339
0.81506807 1.3801252 2.4487643 2.0314543 1.6971244 2.0713181 0.4871761 1.6848768
1.551414 1.7744547 1.503287 1.4742963 1.1220533 1.5511575 2.2860818 1.2658728
1.178856 1.9082198 0.31883073 0.7463797 1.524921 0.8973483 1.2076261 1.9685522
1.5369775 2.2383971 1.7210277 1.4744481 1.6696552 1.591562 1.829295 1.269448
1.7562606 1.6811156 1.1980733 1.0390164 1.6267755 0.6632832 2.089641 2.122082
1.1856854 1.2839699 2.174329 1.493812 0.2844903 1.4819022 1.0671966 1.0799919
1.4071224 1.6775665 1.4451627 1.577658 1.9706107 0.88632506 1.2228554 1.9080306
1.4673462 1.632482 0.47488764 1.5248365 2.181092 1.1896594 1.1658989 1.6156871
1.587328 1.2104275 1.5621301 1.5475441 0.90548587 0.3802298 1.6422962 1.135979
1.6539887 0.9042637 1.5228231 1.5030307 0.97863144 0.64346886 1.8192127 0.46230567
1.1207253 1.8466395 0.7037609 1.7461501 1.9653425 1.7748643 0.5723798 1.4939598
1.7107911 1.6149255 1.2383891 1.6445744 1.8789972 1.7241653 2.5802376 1.7738613
1.5192858 1.9516014 1.6739306 1.6530123 2.0167205 1.0365442 1.3948102 1.159726
2.528618 1.7255131 1.7511029 1.8601259 1.5778228 2.1910934 1.3194748 1.246286
1.6887331 1.6424602 2.1158838 2.0234628 1.2365175 1.5706447 0.85149825 1.134372
1.5657535 2.000269 1.6440316 1.4903082 1.7696168 1.2917452 0.9320489 1.5914094
1.763525 1.5894173 1.8394885 1.7511095 1.677472 1.5042542 1.3116317 1.4724467
1.3769274 0.7268974 1.8296072 0.98555154 1.7034425 1.3151228 1.0552137 1.8082768
1.674024 1.5473524 1.2189684 1.8653615 1.4479975 0.5208495 1.0335118 1.0565981
1.2215176 1.2214724 1.8508542 1.3783195 0.9177224 0.9914026 1.8187631 1.7513043
1.7326788 1.94168 0.856561 1.7580918 1.8303256 2.0082886 1.5861689 1.3447651
2.0193117 1.5432827 1.6516993 2.0789795 0.77458143 1.4881806 1.2145762 0.98496133
0.93068695 2.455223 2.0199087 1.9657574 0.726497 1.7253141 2.330486 0.49319658

features.45.bias f4 [2048]
00000000: 44a6 5ec0 d366 19c0 f5a2 27c0 ebf0 38c0
00000010: 8993 cebf cbfd 39c0 0d20 c3bf 6ee5 43c0
00000020: fd96 4dc0 af67 3dc0 09f2 a3c0 63c8 7ac0
00000030: 0d8b 5fc0 d02f b5bf 90d8 86bf 588b 8ac0
00000040: d8d7 49c0 630f febf a34a 3cc0 877d 47c0
00000050: 4866 30c0 be6c 65c0 fc72 a7c0 618c 59c0
00000060: 17dc 4dc0 2fa2 66c0 f9fc f2bf 2e61 d5bf
00000070: 110c 6bc0 2aed d3bf 5078 4ec0 3379 a7bf
00000080: 2156 12c0 72d8 8ac0 6358 6fc0 1080 e2bf
00000090: b062 c2bf 3eed 9ac0 28e1 c5c0 3fa2 19c0
000000a0: cb5c cbbc 5c70 0fc0 b407 6bbf e150 7ec0
000000b0: 006b 60c0 5785 83bd d45c a4c0 bf28 a5bf
000000c0: 6d09 87c0 a06a 85c0 44e0 61bf d47f 0ac0
000000d0: 381a 58c0 8fab 8dc0 4ee4 4cc0 cc72 dfbe
000000e0: ebdd 83c0 f1a5 86c0 b8bc 08c0 5bdb 7cbf
000000f0: e886 49c0 e984 80bf 948b d1bf 4777 bdc0
00000100: f563 75c0 ed88 43c0 dd8b 42c0 8785 85c0
00000110: 6ce8 03c0 dc67 74c0 6775 82c0 b778 65c0
00000120: 4b09 91bf 2a39 48c0 2123 c5c0 6ec4 9dc0
00000130: 2adc 85c0 1959 92c0 438d 10bf fc0a 84c0
00000140: c780 69c0 8703 92c0 d0df 65c0 a916 37c0
00000150: 0dd1 05c0 3611 70c0 36a0 a2c0 0d57 e9bf
00000160: 57b0 25c0 ad24 5bc0 fa72 aebe cdf4 76bf
00000170: 33e4 66c0 756d aabf 8db8 2bc0 0a95 93c0
00000180: 1689 65c0 a242 8bc0 8b03 8bc0 d1b4 47c0
00000190: 02a0 90c0 cc95 58c0 5d4f 6dc0 2c28 36c0
000001a0: d3da 7dc0 6416 72c0 bd77 0ec0 d6f4 01c0
000001b0: f38f 58c0 5e2c 56bf 3915 9ac0 e3cf a6c0
000001c0: 7117 1cc0 882a fbbf 166b 98c0 38a0 4bc0
000001d0: 3b06 e2bc 2543 51c0 0fdc dcbf 72e9 12c0
000001e0: 1ff6 3dc0 dce6 4ac0 c27e 53c0 e80f 62c0
000001f0: a4e5 98c0 a640 bfbf 76cd 1bc0 878a 84c0
00000200: d40b 58c0 a089 71c0 6abd 0bbf c462 70c0
00000210: 7bcc a8c0 cdfb 1bc0 e16e 24c0 cd15 4dc0
00000220: 85c2 75c0 a99b 08c0 a2a7 57c0 e138 65c0
00000230: 7e4a c0bf 4c1e afbe 0a79 81c0 46c7 13c0
00000240: 48a7 86c0 a6ba c0bf 8e5d 6ac0 258f 45c0
00000250: 2c0e d0bf a388 52bf 7658 85c0 45b9 e3be
00000260: 89ee 09c0 ad8b 93c0 e92b 8ebf d9aa 83c0
00000270: 7186 a0c0 3eed 8cc0 77f7 35bf 131d 57c0
00000280: fb5f 80c0 b853 83c0 9f53 1cc0 a224 81c0
00000290: e014 93c0 8550 7cc0 f853 c8c0 2b2f 77c0
000002a0: 45b1 39c0 d6b3 9cc0 a60e 70c0 df93 53c0
000002b0: e405 9fc0 11b6 09c0 e92d 14c0 7eb9 1bc0
000002c0: 6ef7 c3c0 4a83 88c0 4530 82c0 b2a0 80c0
000002d0: 4b2a 82c0 538b b0c0 4fce 1ac0 35d1 2cc0
000002e0: cd8c 83c0 9453 59c0 b727 a7c0 ac28 a1c0
000002f0: d4e3 3ec0 9dce 67c0 8d75 b2bf 64a8 08c0
00000300: d488 65c0 e627 94c0 c26e 83c0 1e80 65c0
00000310: 492b 84c0 0efc 37c0 5e01 d4bf c918 60c0
00000320: 9671 71c0 2df0 45c0 01d6 69c0 60e0 63c0
00000330: e180 8cc0 c878 52c0 5d0d 38c0 cd24 60c0
00000340: 27dc 52c0 8736 6cbf 6b81 82c0 40da debf
00000350: 43a3 7cc0 a3ec 37c0 ebdd fbbf 9b80 85c0
00000360: bf2d 99c0 a787 71c0 b70b 37c0 83a0 92c0
00000370: d42e 6dc0 05c9 2abf a697 c3bf 00fd fcbf
00000380: bc2e 1bc0 1e41 1bc0 112b 8fc0 42ac 4dc0
00000390: 8ef2 dabf c8bf fcbf ea31 55c0 a7be 94c0
000003a0: 1e6a 7fc0 7b76 98c0 510e b0bf 6634 90c0
000003b0: f745 81c0 d128 afc0 56d6 7cc0 b60b 37c0
000003c0: e44b 98c0 eff3 65c0 8756 87c0 e4be a1c0
000003d0: f2c6 54bf b101 68c0 e844 05c0 d03e c7bf
000003e0: 0384 bbbf 0e01 c7c0 8ede a2c0 09c7 91c0
000003f0: 2782 77bf bac9 8bc0 88ca d1c0 b577 12bf
-3.478898 -2.396901 -2.619321 -2.8897045 -1.6138774 -2.9061153 -1.5244156 -3.0608783
-3.2123406 -2.9594533 -5.1232953 -3.9184806 -3.492862 -1.4155216 -1.053484 -4.3295097
-3.153799 -1.9848446 -2.9420555 -3.1170366 -2.7562428 -3.584762 -5.232786 -3.399193
-3.2165582 -3.603649 -1.8983451 -1.6670282 -3.6726115 -1.6556752 -3.2260933 -1.3083862
-2.286507 -4.3389215 -3.7397697 -1.7695332 -1.5186367 -4.84146 -6.183735 -2.4005277
-0.02482452 -2.2412329 -0.9180863 -3.9736865 -3.5065308 -0.06421917 -5.1363316 -1.290306
-4.2199006 -4.1692657 -0.8823283 -2.164052 -3.3766003 -4.427192 -3.2014346 -0.4364227
-4.1208396 -4.2077565 -2.1365185 -0.9877221 -3.148859 -1.0040561 -1.6370721 -5.92081
-3.834226 -3.0552323 -3.0397866 -4.1725497 -2.061061 -3.818839 -4.0768313 -3.5854928
-1.1330961 -3.128489 -6.160538 -4.930228 -4.1831255 -4.573376 -0.5646555 -4.126341
-3.648485 -4.5629306 -3.5917854 -2.860758 -2.0908844 -3.7510505 -5.082057 -1.8229691
-2.588888 -3.4241135 -0.34072095 -0.96467286 -3.6076782 -1.3314654 -2.683139 -4.6119432
-3.586492 -4.351884 -4.3441825 -3.1204112 -4.519532 -3.3841429 -3.707969 -2.846202
-3.966481 -3.7826166 -2.2260582 -2.0305686 -3.383786 -0.8366145 -4.8150907 -5.212877
-2.4389307 -1.9622355 -4.763072 -3.181654 -0.027590862 -3.2697232 -1.7254657 -2.2954984
-2.968147 -3.1703405 -3.3046117 -3.5322208 -4.7780323 -1.4941604 -2.4344153 -4.14191
-3.375722 -3.774025 -0.545859 -3.7560282 -5.274961 -2.4372437 -2.5692675 -3.2044556
-3.8399975 -2.1345007 -3.3696065 -3.5815966 -1.5022733 -0.34202802 -4.0460253 -2.3090377
-4.20792 -1.505696 -3.6619601 -3.0868618 -1.6254325 -0.8223974 -4.1670485 -0.44477287
-2.155184 -4.6108003 -1.110715 -4.1146054 -5.0164113 -4.40396 -0.71080726 -3.3611495
-4.0117164 -4.1039696 -2.4426038 -4.035722 -4.596298 -3.9424145 -6.26025 -3.862254
-2.9014447 -4.8969526 -3.750894 -3.3059003 -4.969469 -2.1517375 -2.3153021 -2.4331965
-6.123954 -4.2660265 -4.0683923 -4.019616 -4.0676627 -5.5170074 -2.418842 -2.700269
-4.1109376 -3.3957262 -5.223598 -5.036215 -2.9826555 -3.6219857 -1.3942124 -2.1352777
-3.5864763 -4.6298704 -4.1072702 -3.5859447 -4.130284 -2.8747592 -1.6562917 -3.5015128
-3.7725577 -3.0927842 -3.6536868 -3.5605698 -4.3907323 -3.288622 -2.8758156 -3.5022461
-3.294687 -0.922707 -4.078298 -1.7410355 -3.9474647 -2.8738182 -1.9677099 -4.171949
-4.7868342 -3.7739046 -2.86009 -4.5820937 -3.7059832 -0.6671298 -1.5280654 -1.976471
-2.4247274 -2.4258494 -4.474007 -3.2136388 -1.7105272 -1.9746027 -3.3311715 -4.648273
-3.9908519 -4.764463 -1.3754369 -4.5063963 -4.0397906 -5.4737325 -3.950582 -2.8600898
-4.759264 -3.5930135 -4.2293124 -5.054552 -0.83116066 -3.6251032 -2.0823307 -1.5566044
-1.4649662 -6.2188787 -5.0896673 -4.5555463 -0.9668297 -4.368375 -6.555973 -0.5721391
