sharding/shards_out/shard_013.pt (torch, 3556 bytes, 2 tensors)

features.31.weight f4 [256]
000000 b2 7b 9e 40 8f b8 95 40 c6 30 f0 3f 38 bc 97 40
       4.9525995 4.678779 1.8764884 4.741726
000010 33 a3 7b 40 c0 51 3f 40 cb ca 80 40 eb d6 5a 40
       3.931836 2.9893646 4.024755 3.4193676
000020 e1 52 2f 40 12 16 9c 40 de 75 cc 40 4c cd 2c 40
       2.7394335 4.877694 6.389388 2.7000303
000030 ef fb ed 3f 94 95 6e 40 cf 68 4a 40 61 7a c6 40
       1.8592509 3.7278795 3.162647 6.202439
000040 3a 89 7b 40 43 a3 46 40 ba a0 4d 40 60 d3 8e 40
       3.9302506 3.1037147 3.212935 4.4633026
000050 80 97 64 40 fb eb 8e 40 d1 2b 53 40 28 c9 25 40
       3.5717468 4.466306 3.2995493 2.5904026
000060 de cd c7 40 02 23 49 40 da 3b 27 40 a2 29 47 40
       6.2438803 3.1427617 2.613028 3.111916
000070 71 23 ce 3f 10 ca ca 40 c1 b3 27 40 5e 09 a3 40
       1.6104566 6.337166 2.6203463 5.0948935
000080 16 ad 00 40 2f 31 d7 3f 2b 89 e5 3f 7c bb 7b 40
       2.0105643 1.6811885 1.7932485 3.9333181
000090 74 e0 92 40 38 8a 39 40 60 00 90 40 17 24 74 40
       4.589899 2.8990612 4.500046 3.8147027
0000a0 ef 95 a1 40 23 0b 59 40 a2 65 56 40 56 1f 65 40
       5.0495524 3.3913047 3.3499532 3.5800376
0000b0 66 2e 2f 40 89 28 78 40 cf 4b a5 40 98 04 98 40
       2.737207 3.877474 5.165504 4.7505608
0000c0 36 d4 f6 3f 4c 39 6f 40 ee 1e 5f 40 6d d4 91 40
       1.9283512 3.7378721 3.4862628 4.557181
0000d0 02 3f 16 40 ae a2 6b 40 d6 38 6e 40 78 68 a2 40
       2.3475957 3.6818042 3.722219 5.0752525
0000e0 e0 d2 9d 40 87 2b 3d 40 a5 95 79 40 02 07 33 40
       4.9319916 2.9557817 3.8997586 2.7973027
0000f0 5e fa 5c 40 d2 0e 29 40 17 77 90 40 b2 1d 21 40
       3.4527812 2.6415296 4.5145373 2.5174375
000100 b5 e7 10 40 9d d5 f7 3f 00 e1 8f 40 bd 5b 57 40
       2.2641423 1.9362065 4.496216 3.3649743
000110 55 e7 8b 40 c3 10 41 40 3d 8f 68 40 0d fe db 3f
       4.371989 3.016648 3.6337426 1.7186905
000120 26 6a 1f 40 e1 7e 7a 40 24 5e a0 40 7d bb 64 40
       2.4908538 3.913994 5.011492 3.5739434
000130 ec 4b 20 40 b8 53 59 40 7a 73 75 40 b9 f0 10 40
       2.504634 3.3957348 3.8351731 2.2646925
000140 6d 33 0c 40 93 dc 13 40 9e 33 8b 40 a7 f6 4b 40
       2.1906388 2.3103378 4.350051 3.1869295
000150 dc 89 4e 40 f5 99 ce 3f f0 c9 40 40 5a a0 84 40
       3.2271643 1.6140734 3.0123253 4.144574
000160 71 3d 32 40 a5 cd e3 3f 42 3d f1 3f 14 24 ad 40
       2.785 1.7797133 1.8846819 5.410654
000170 57 9e 92 40 07 68 d0 40 0e 26 ad 3f e1 1b a3 40
       4.5818286 6.5126987 1.3527238 5.097153
000180 3f 2a 6d 40 41 4b 81 40 d6 ed c8 3f cc f6 5f 40
       3.7057035 4.0404363 1.5697582 3.4994383
000190 2e 6e ed 3f d6 96 8b 40 01 a5 82 40 14 2d ac 40
       1.8549249 4.3621626 4.082642 5.3805027
0001a0 d5 7e 0e 40 9a 2a 45 40 7e d6 8f 40 a4 45 8b 40
       2.2264912 3.0807252 4.494933 4.352251
0001b0 46 37 0f 40 1c 5c 22 40 61 d9 20 40 6e 45 b6 40
       2.2377486 2.536872 2.5132678 5.6959753
0001c0 9a 81 26 40 c9 09 3e 40 0c 2d 16 40 8b 54 6a 40
       2.6016603 2.9693472 2.3464994 3.66141
0001d0 7c de bb 40 08 ce eb 3f f8 a6 1a 40 44 e0 97 40
       5.8709087 1.8422251 2.416441 4.746126
0001e0 4a 9b 8c 40 24 02 27 40 5d 6c d5 3f de ff d9 40
       4.393956 2.6095057 1.6673695 6.812484
0001f0 a5 48 8b 40 00 69 00 40 48 d2 88 40 1e 21 87 40
       4.3526177 2.0064087 4.275669 4.2227926
000200 e5 55 bb 3f 85 63 90 40 fe 06 19 40 c4 ee 1a 40
       1.4635588 4.5121484 2.3910518 2.420823
000210 3d 4f 38 40 18 0f 87 40 2e 9a b5 40 fc 3a bd 40
       2.8798363 4.2205925 5.675071 5.9134502
000220 0a 3c 67 40 e5 68 11 40 12 ad 55 40 02 65 4f 40
       3.6130395 2.2720273 3.3386884 3.24054
000230 a0 1a ba 3f c8 f1 3b 40 81 d0 8a 40 d8 17 83 40
       1.4539375 2.9366322 4.337952 4.0966606
000240 48 1b 6b 40 83 80 1d 40 6a 2a a3 40 e5 bb 17 40
       3.67354 2.4609687 5.0989275 2.3708432
000250 f4 b1 98 3f 23 cd b8 40 3f e7 25 40 3e 7f 55 40
       1.1929307 5.775041 2.5922391 3.3358912
000260 e5 ad 59 40 dd 55 ef 3f 24 af c8 40 9c 87 0f 40
       3.4012387 1.8698078 6.2713795 2.242652
000270 dc a9 21 40 f3 76 85 40 7c 92 8d 40 5a 76 78 40
       2.5259924 4.17077 4.4241314 3.8822236
000280 15 48 6e 40 4f 65 6e 40 8b 4c b9 40 0b 28 a2 40
       3.7231495 3.7249334 5.7905936 5.067388
000290 6b 82 ef 3f 2c 11 d0 40 b1 0f a7 40 f0 cb c0 3f
       1.8711675 6.502096 5.2206655 1.5062237
0002a0 b2 e9 a5 3f 00 28 16 40 5e d0 2c 40 1b a4 86 40
       1.2961943 2.3461914 2.7002177 4.2075324
0002b0 2b d2 f2 3f a4 e2 18 40 81 ff 3d 40 c1 2d 40 40
       1.8970388 2.388833 2.9687197 3.0027926
0002c0 ec ef 14 40 4e ae 59 40 5d b3 7d 40 83 88 98 40
       2.3271437 3.4012637 3.9640725 4.766664
0002d0 bb 6e 89 40 fd f9 7e 40 b0 ac 08 40 58 bc 53 40
       4.294767 3.984008 2.13554 3.3083706
0002e0 ac a3 b4 40 78 5b a3 40 82 0d 5c 40 ec 10 bd 40
       5.6449795 5.1049156 3.4383245 5.9083157
0002f0 dc 89 90 40 2c 87 53 40 2a 35 f8 3f a0 88 39 40
       4.5168285 3.3051252 1.9391224 2.898964
000300 0b 46 6e 40 b7 e9 d4 3f 27 f7 0a 40 5d 16 a6 40
       3.723025 1.6633824 2.171335 5.19023
000310 48 98 b8 40 48 39 6a 40 ab 60 cd 3f 56 13 4e 40
       5.768589 3.6597462 1.6045126 3.2199302
000320 f4 9e ea 3f 4d 5a 04 40 4a 24 99 40 75 5c 11 40
       1.8329759 2.0680115 4.78568 2.2712681
000330 9a ae a3 40 e0 5d 7f 40 9e 82 b9 40 fa 1c fa 3f
       5.1150637 3.9901047 5.7971945 1.9540093
000340 ce c9 9e 40 e5 44 43 40 77 af 9d 40 bc 29 2f 40
       4.9621344 3.05108 4.927669 2.7369223
000350 72 c1 a4 40 d0 cc 9e 40 6a 67 5c 40 69 55 ab 40
       5.148614 4.9625015 3.443812 5.354176
000360 1c c6 08 40 c4 71 83 40 a9 df 85 40 52 2a 5d 40
       2.1370916 4.1076374 4.1835523 3.455708
000370 0d 82 17 40 7d 8b ab 40 5a c3 87 40 8d 44 dd 3f
       2.3673127 5.3607774 4.2425966 1.7286545
000380 5a 9e 13 40 99 79 3b 40 70 b8 8a 40 6a 37 23 40
       2.30654 2.9292967 4.3350143 2.5502572
000390 d6 7b 73 40 02 2b 7f 40 8d 93 76 40 72 14 9b 40
       3.8044333 3.987 3.8527558 4.846246
0003a0 ac 41 96 40 71 be c3 3f 6e 32 49 40 49 51 46 40
       4.6955166 1.5292493 3.143703 3.0987113
0003b0 0d fc 9a 40 15 34 46 40 e8 31 ed 3f a2 84 a0 40
       4.843268 3.0969288 1.8530855 5.0161905
0003c0 2b f0 10 40 41 34 65 40 d7 a4 83 40 84 67 18 40
       2.2646587 3.5813143 4.113872 2.381318
0003d0 dd 1f d1 3f b3 fd 7c 40 ed 64 9c 40 89 16 80 40
       1.6337849 3.9529846 4.88732 4.002751
0003e0 60 34 39 40 ba 33 61 40 2f 8b a2 40 1f 43 18 40
       2.8938217 3.5187821 5.07949 2.3790967
0003f0 26 8c 26 40 90 9d 3b 40 54 53 82 40 23 f3 6b 40
       2.602304 2.9314919 4.072672 3.686715

features.31.bias f4 [256]
000000 0b 01 c7 c0 98 b8 9a c0 51 54 7b 3f 43 60 a0 c0
       -6.2188773 -4.8350334 0.9817553 -5.0117507
000010 93 75 4c c0 9e 28 32 bf f1 6a 78 c0 18 ed 8f bf
       -3.1946762 -0.69593227 -3.8815272 -1.124423
000020 b6 cf b4 be 85 d8 95 c0 65 86 c6 c0 53 85 8e 3e
       -0.3531472 -4.6826806 -6.2039056 0.27836093
000030 73 6d 03 3f 16 7c 36 c0 03 c4 14 c0 20 36 1a c1
       0.5133888 -2.8513236 -2.3244636 -9.638214
000040 13 88 78 c0 f4 45 90 bf 38 6c 15 c0 7c d9 8a c0
       -3.8833053 -1.1271348 -2.3347301 -4.3390484
000050 31 0f f4 bf 68 18 9e c0 03 50 b4 bf 99 78 0c bf
       -1.9067136 -4.9404793 -1.4086918 -0.5487152
000060 d3 51 06 c1 d3 94 3f bf 7b 64 23 be 03 90 c5 bf
       -8.394977 -0.7483646 -0.15956299 -1.5434574
000070 50 7e d8 3f f2 8c 11 c1 4c 07 df be ea 7f c2 c0
       1.6913548 -9.09691 -0.43560255 -6.0781145
000080 4f 9a ac 3f cc 08 d4 3f 47 ac ab 3f e9 c9 2b c0
       1.3484591 1.6565185 1.341195 -2.6841986
000090 2c 84 70 c0 6d b5 d8 bf fe bf a4 c0 7c ac 1f c0
       -3.7580671 -1.6930367 -5.1484365 -2.4949026
0000a0 cf ae 7c c0 83 08 00 c0 f6 d3 39 bf 28 5b 19 c0
       -3.9481695 -2.0005195 -0.7258905 -2.3961887
0000b0 b2 99 54 bf e8 11 47 c0 bf 95 bc c0 59 19 98 c0
       -0.8304702 -3.110468 -5.8932796 -4.753094
0000c0 ae b5 fd 3f 95 a2 23 c0 ab f1 cc bf 04 95 89 c0
       1.9821069 -2.5567982 -1.6011251 -4.2994404
0000d0 95 ff 21 3e 31 29 2f c0 50 d9 44 c0 67 f6 9a c0
       0.15820153 -2.7368891 -3.0757637 -4.8425784
0000e0 65 a2 4a c0 15 2f 7b bf ab 0a c8 bf 49 02 44 bf
       -3.1661618 -0.98118716 -1.5628256 -0.76565987
0000f0 4b 44 c0 bf d6 7e b8 bf 63 50 8d c0 fc 8c 9c bf
       -1.5020841 -1.4413707 -4.416063 -1.2230525
000100 e1 67 49 3e 0f dd cc 3f bb 3b 49 c0 81 33 eb bf
       0.19668533 1.6004962 -3.1442707 -1.8375093
000110 22 31 74 c0 3d 4b 78 bf 6a 39 e8 bf 57 a8 9e 3f
       -3.8154988 -0.96989805 -1.8142521 1.2395123
000120 fb c8 93 3e 43 a8 36 c0 54 af d6 c0 18 24 94 bf
       0.28864273 -2.8540199 -6.7089024 -1.1573515
000130 3c 40 5b 3e 2b e1 26 c0 a5 55 6d c0 fb c9 3b 3e
       0.21411222 -2.6074932 -3.7083523 0.18338768
000140 f1 a9 94 3f c2 b3 00 3e 48 3d 77 c0 cb 2b c6 bf
       1.1614362 0.12568572 -3.8631153 -1.5482115
000150 8b 16 f7 bf b0 a7 bf 3f b3 59 eb be b6 3f 0c c0
       -1.9303755 1.4973049 -0.45966873 -2.1913886
000160 7f 66 93 bf 10 ea 9a 3f 2f 9b 28 3f a0 9a cc c0
       -1.1515654 1.210268 0.6586179 -6.393875
000170 f0 f6 51 c0 00 e7 ca c0 83 ed f0 3f c1 ec 9b c0
       -3.2806969 -6.3406982 1.8822483 -4.8726506
000180 fd de 46 c0 fe a8 5b c0 56 25 3a 40 66 51 06 c0
       -3.1073601 -3.4321895 2.9085288 -2.0987182
000190 df a6 09 3f ae 02 82 c0 17 68 85 c0 02 61 01 c1
       0.5377025 -4.062827 -4.1689563 -8.086184
0001a0 b1 bf f0 3e 65 e7 01 c0 20 01 b0 c0 43 cf 78 c0
       0.4702125 -2.0297482 -5.5001373 -3.8876503
0001b0 66 c5 c2 3e ed c1 13 bf 05 5a f6 3d 17 53 c3 c0
       0.38041228 -0.5771778 0.120288886 -6.103893
0001c0 84 52 1b bf 60 bb b0 bf 02 6a 57 3e 0f b8 24 c0
       -0.60672784 -1.3807182 0.21036533 -2.573734
0001d0 b7 e8 00 c1 de 97 53 3f 60 94 3b be ce 10 9c c0
       -8.056815 0.82653606 -0.1831832 -4.8770514
0001e0 ab cc 90 c0 74 11 d2 3e 79 e3 7e 3f ba a5 31 c1
       -4.524984 0.4102894 0.99565846 -11.102961
0001f0 fb 7c 89 c0 4f 82 0a 3f bc a3 80 c0 fb c1 3f c0
       -4.2965064 0.54105085 -4.019987 -2.9962146
000200 7f 6b c3 3f 2a 40 00 c0 bf 11 eb be c2 4e f0 3c
       1.526718 -2.0039163 -0.45911977 0.02933443
000210 cd c5 2f bf 75 7d c4 c0 39 2c ec c0 50 06 c9 c0
       -0.68661195 -6.1403146 -7.3803983 -6.2820206
000220 58 b1 11 c0 15 d6 ed 3c f4 02 c6 bf 2a 07 0e c0
       -2.2764492 0.029032746 -1.5469651 -2.2191873
000230 cc 76 e0 3f 30 32 5c bf 9b 25 4f c0 15 39 40 c0
       1.7536254 -0.8601408 -3.2366703 -3.003484
000240 16 8c 21 c0 f9 25 49 be 62 ec fa c0 0f 06 f0 be
       -2.5241752 -0.19643392 -7.8413553 -0.46879622
000250 0a 34 35 40 f7 1a a3 c0 85 48 0c 3f 39 95 a8 bf
       2.8313012 -5.0970416 0.54798156 -1.3170539
000260 05 48 92 bf 8e 4c 8e 3f 67 9e dd c0 d1 da b3 be
       -1.1428229 1.1117113 -6.925586 -0.3512788
000270 22 4a 09 be 7b 20 b6 c0 3d 66 74 c0 43 dd 18 c0
       -0.13407186 -5.691465 -3.8187401 -2.3885047
000280 50 f8 00 c0 ff cf 2e c0 ca 34 d5 c0 dd 72 9d c0
       -2.0151558 -2.731445 -6.662694 -4.9202714
000290 e9 e0 b7 3f d1 3f f3 c0 2d 9d bb c0 5e f1 0e 40
       1.4365512 -7.60154 -5.8629365 2.233482
0002a0 a4 a4 f3 3f c3 d3 5e be d1 dc 90 be 86 6c 16 c0
       1.9034619 -0.21760468 -0.2829347 -2.3503737
0002b0 ae 35 23 3f 2c 26 46 be d1 19 fe be cf 25 f0 bf
       0.63753784 -0.19350499 -0.4962907 -1.8761538
0002c0 92 7f b4 3e 19 51 2d c0 dc ff 31 c0 62 3f 81 c0
       0.35253578 -2.7080748 -2.7812414 -4.038987
0002d0 54 26 8d c0 95 4a 21 c0 43 8f 93 3e 1a 7b b1 bf
       -4.4109287 -2.5201771 0.28820238 -1.3865693
0002e0 c1 6b 03 c1 fa 37 bd c0 4d 6c 19 c0 f0 81 e0 c0
       -8.213807 -5.913083 -2.3972352 -7.0158615
0002f0 3e 3e 50 c0 d9 a6 e4 bf e0 de 58 3f 73 6a 1e bf
       -3.253799 -1.7863418 0.8471508 -0.6188118
000300 13 cd 03 c0 8a f1 f8 3f 7a 67 5c 3f bd 96 c3 c0
       -2.0593917 1.9448712 0.8609539 -6.1121507
000310 d8 cb a3 c0 cd d6 67 bf 06 02 a6 3f 3d f3 01 c0
       -5.1186333 -0.90562135 1.2969368 -2.030471
000320 3a d3 5e 3f fc 6c 42 3f 33 d4 bd c0 e4 56 e3 3d
       0.87041056 0.75947547 -5.932153 0.111005574
000330 87 f7 d2 c0 01 84 cf bf 19 fe c2 c0 5b c0 02 3f
       -6.5927157 -1.6212159 -6.093518 0.5107476
000340 d1 28 af c0 b3 b3 e8 be dc 74 b7 c0 79 68 3a bf
       -5.4737325 -0.454496 -5.733015 -0.7281566
000350 88 c4 a0 c0 b8 5c bb c0 b9 e5 26 c0 14 7d bd c0
       -5.0239906 -5.855068 -2.6077712 -5.9215183
000360 d0 45 95 3e ba bf 1c c0 48 77 01 c0 47 3b f3 bf
       0.29154825 -2.449202 -2.0229053 -1.9002465
000370 46 bf 4d 3e c2 d6 a6 c0 23 71 3d c0 c3 29 a6 3f
       0.20092496 -5.2137156 -2.9600303 1.2981495
000380 a3 51 9d bd 3b 53 31 bf 7d 0a 93 c0 e3 94 72 3c
       -0.076815866 -0.69267625 -4.5950303 0.014806005
000390 ce 3b 3d c0 57 6c 28 c0 bd f7 34 c0 14 64 c8 c0
       -2.9567752 -2.6316125 -2.8276207 -6.2622166
0003a0 af 12 ac c0 11 8b 01 40 4d 91 a7 bf 6d 93 6b bf
       -5.3772807 2.024113 -1.3091217 -0.9202183
0003b0 95 e6 a0 c0 f4 67 75 bf f1 b3 fd 3e cf cc 9e c0
       -5.028147 -0.95861745 0.49551347 -4.962501
0003c0 22 77 a5 3f 76 8b 0a c0 bb bf 55 c0 72 86 13 3e
       1.2926981 -2.164762 -3.3398273 0.14406756
0003d0 69 e5 07 40 06 6b 17 c0 ae 2b a1 c0 b2 df 18 c0
       2.123377 -2.3659072 -5.036582 -2.3886533
0003e0 02 6d b4 bf 1b 91 d2 bf 3b 65 a5 c0 f9 20 9a 3e
       -1.4095767 -1.6450533 -5.168607 0.3010328
0003f0 f2 d9 09 bf 44 9b 6d bf ba a7 49 c0 7c da 2f c0
       -0.53848183 -0.9281504 -3.1508622 -2.7477102
