sharding/shards_out/shard_002.pt (torch, 8676 bytes, 2 tensors)

features.0.weight f4 [64, 3, 3, 3]
-0.060226254 0.22158064 0.23224388 -0.5533714 -0.07310655 0.45363796 -0.4595752 0.09413201
0.50694066 0.058336604 -0.08876392 -0.4364857 0.4229756 0.20316575 -0.25242817 0.394152
0.1116894 -0.30022028 -0.014309754 -0.13351819 0.08413611 0.32946935 0.007786415 -0.13457304
0.22515638 -0.12837924 -0.24346833 0.08361196 0.0036754792 0.03297119 -0.031204963 -0.13386866
-0.009281799 0.019289348 -0.030412184 0.06854691 -0.11399936 -0.22398734 -0.20708759 -0.23130038
-0.3306504 -0.30771625 -0.1885163 -0.2794906 -0.29453897 0.13662273 0.22571205 0.22445141
0.25546807 0.36693823 0.31811756 0.23518558 0.31551474 0.21587665 -0.16706489 -0.12181739
-0.27865437 0.3356244 0.8037124 -0.11436936 -0.3137299 0.021816442 -0.17563248 -0.17057307
-0.07286799 -0.40051204 0.3534231 0.7842762 -0.04507288 -0.2799018 0.094332166 -0.21785344
-0.15303437 -0.040210154 -0.18341556 0.19604144 0.5057872 -0.060002085 -0.18492289 0.023112228
-0.124969 -1.0766908e-09 -1.4422196e-09 -1.7057202e-09 -1.4822931e-09 -2.0502247e-09 -2.4087399e-09 -1.2549218e-09
-1.6895633e-09 -2.1679392e-09 -7.875064e-11 -8.505659e-11 -9.382743e-11 -4.980466e-10 -6.686866e-10 -7.144606e-10
-4.2601875e-10 -4.2413434e-10 -6.19221e-10 2.116264e-10 -6.238814e-10 -1.1028182e-09 -3.2695696e-10 -1.4337538e-09
-2.109263e-09 -5.225056e-11 -8.9289137e-10 -1.6932299e-09 0.24497752 0.4927532 0.10262891 -0.18763734
-0.20869596 -0.12440666 -0.10780537 -0.31569165 0.10387942 0.36395875 0.5921606 0.20480415
-0.14648923 -0.11358999 -0.09466665 -0.2921865 -0.4081059 -0.10473711 0.13543709 0.25921687
0.073761344 -0.043708812 -0.07516071 -0.073603466 -0.062959574 -0.25852084 0.03939321 -0.22794832
-0.059279088 -0.03702173 0.0011610263 0.13916747 0.16284741 0.0014937149 0.12675528 0.16231993
-0.11430334 0.035321504 0.027599549 0.040483333 0.14743602 0.15988643 0.026395071 0.12236374
0.15075026 -0.17307456 0.0034820444 0.0061291317 -0.05390147 0.087180465 0.11155375 -0.072691835
0.04253371 0.066490605 -0.076532744 0.04300441 -0.050255604 -0.4340572 0.23278958 0.28215146
-0.42025113 0.11936421 0.269716 -0.21589066 0.13752082 0.08785661 -0.48168996 0.3065244
0.30536458 -0.5294253 0.13433342 0.28648412 -0.10210377 0.04832986 0.023886856 -0.28508398
0.22134565 0.0923769 -0.19530337 0.11462921 0.06628578 -0.6474156 -1.2077534 -1.018177
-0.17855453 -0.17559205 -0.12927513 0.8497954 1.3536519 1.1582537 -0.9404233 -1.629186
-1.3856527 -0.13414559 -0.18508671 -0.17171659 1.2484943 1.7461753 1.4332461 -0.39476168
-0.8165592 -0.6247572 -0.15627128 -0.09005307 -0.11174591 0.5615012 0.90684277 0.7498095
-0.08160113 -0.11147044 -0.1598677 -0.13383983 -0.1534636 -0.17751288 -0.18739888 -0.18207136
-0.17714985 -0.13217208 -0.14400843 -0.1341204 -0.14433151 -0.16379774 -0.15491867 -0.12996396
-0.16021647 -0.14434089 0.22671461 0.27418202 0.3078617 0.28036836 0.30571267 0.3081561
0.3120508 0.3021359 0.3172517 0.13849996 0.09244433 0.12578456 0.1499539 0.13749355
0.16701673 0.14997816 0.14522052 0.18287764 -0.21494272 -0.32215238 -0.29943717 -0.35024232
00000000: ceaf 76bd 09e6 623e 57d1 6d3e c0a9 0dbf
00000010: e3b8 95bd 3c43 e83e 714d ebbe 49c8 c03d
00000020: ddc6 013f 5df2 6e3d dcc9 b5bd 0e7b dfbe
00000030: 4290 d83e af0a 503e 443e 81be 4ace c93e
00000040: 6abd e43d 79b6 99be 7573 6abc feb8 08be
00000050: 8e4f ac3d 35b0 a83e 2f25 ff3b 84cd 09be
00000060: 658f 663e d975 03be c34f 79be bf3c ab3d
00000070: 4fe0 703b cc0c 073d 8da1 ffbc de14 09be
00000080: b012 18bc b204 9e3c f922 f9bc 5362 8c3d
00000090: 7f78 e9bd f05c 65be c50e 54be 02da 6cbe
000000a0: 024b a9be fc8c 9dbe 6b0a 41be 6419 8fbe
000000b0: d0cd 96be d4e6 0b3e 0f21 673e 97d6 653e
000000c0: b6cc 823e 54df bb3e 4ee0 a23e 7dd4 703e
000000d0: 268b a13e c50e 5d3e 0f13 2bbe 657b f9bd
000000e0: c9ab 8ebe f6d6 ab3e 19c0 4d3f 7c3a eabd
000000f0: 35a1 a0be 65b8 b23c 00d9 33be b5aa 2ebe
00000100: d03b 95bd ea0f cdbe dff3 b43e 53c6 483f
00000110: 579e 38bd 4a4f 8fbe 3931 c13d f914 5fbe
00000120: 0bb5 1cbe 67b3 24bd 4ad1 3bbe 16bf 483e
00000130: 457b 013f bfc4 75bd 6d5c 3dbe db55 bd3c
00000140: bfef ffbd b1fa 93b0 9737 c6b0 b26e eab0
00000150: 8db9 cbb0 efe3 0cb1 0087 25b1 a379 acb0
00000160: 3936 e8b0 cafa 14b1 ab2c adae 9a0a bbae
00000170: 2654 ceae eae6 08b0 a3ce 37b0 b263 44b0
00000180: cf34 eaaf 9a2b e9af ce35 2ab0 89af 682f
00000190: c07d 2bb0 f791 97b0 1abf b3af ba0d c5b0
000001a0: 8cf2 10b1 e7cc 65ae a56f 75b0 3bb7 e8b0
000001b0: 63db 7a3e 264a fc3e 1b2f d23d 0124 40be
000001c0: 65b4 55be ebc8 febd 10c9 dcbd 56a2 a1be
000001d0: bcbe d43d cd58 ba3e d697 173f 2eb8 513e
000001e0: 4601 16be dea1 e8bd 97e0 c1bd 7899 95be
000001f0: 42f3 d0be 6980 d6bd 05b0 0a3e 13b8 843e
00000200: 3010 973d 0308 33bd dced 99bd 6abd 96bd
00000210: f3f0 80bd d85c 84be c65a 213d 496b 69be
00000220: a1ce 72bd 19a4 17bd 942d 983a eb81 0e3e
00000230: 79c1 263e c1c8 c33a 23cc 013e 3237 263e
00000240: df17 eabd 48ad 103d 7318 e23c dad1 253d
00000250: 78f9 163e 45b9 233e 7a3a d83c d799 fa3d
00000260: 475e 1a3e 753a 31be 0333 643b e2d6 c83b
00000270: cac7 5cbd ac8b b23d 4b76 e43d 75df 94bd
00000280: d437 2e3d 3a2c 883d 33bd 9cbd 6425 303d
00000290: d2d8 4dbd bf3c debe 6460 6e3e 2876 903e
000002a0: 282b d7be 3975 f43d 3718 8a3e 7112 5dbe
000002b0: 42d2 0c3e 2bee b33d 11a0 f6be c4f0 9c3e
000002c0: bf58 9c3e 6b88 07bf b38e 093e 0cae 923e
000002d0: c81b d1bd 88f5 453d 5eae c33c 87f6 91be
000002e0: 6fa8 623e 1a30 bd3d 9bfd 47be b8c2 ea3d
000002f0: d7c0 873d 07bd 25bf aa97 9abf a053 82bf
00000300: 00d7 36be 67ce 33be b360 04be 318c 593f
00000310: 7744 ad3f a841 943f 95bf 70bf 2b89 d0bf
00000320: 115d b1bf 765d 09be 5f87 3dbe 79d6 2fbe
00000330: a9ce 9f3f ac82 df3f 9c74 b73f 341e cabe
00000340: 060a 51bf 16f0 1fbf 9405 20be be6d b8bd
00000350: 0adb e4bd 8bbe 0f3f d926 683f 84f3 3f3f
00000360: 7e1e a7bd 9d4a e4bd 5cb4 23be 4f0d 09be
00000370: 9025 1dbe f0c5 35be 7ee5 3fbe ea70 3abe
00000380: c566 35be 1e58 07be f276 13be dc56 09be
00000390: a4cb 13be 98ba 27be 00a3 1ebe 4615 05be
000003a0: c90f 24be 19ce 13be e027 683e 9661 8c3e
000003b0: 0ca0 9d3e 718c 8f3e 5f86 9c3e a3c6 9d3e
000003c0: 1fc5 9f3e 8fb1 9a3e d16e a23e efd2 0d3e
000003d0: 7453 bd3d abcd 003e 848d 193e 1ccb 0c3e
000003e0: 6f06 2b3e e093 193e b0b4 143e 4744 3b3e
000003f0: f219 5cbe 28f1 a4be d44f 99be f652 b3be

features.0.bias f4 [64]
0.037600566 -0.101124845 -0.08972735 0.16604589 0.09360101 -0.053098068 0.028687855 0.024782734
0.037818316 -0.05764467 -0.12555715 0.13015151 0.026752459 0.07423272 -0.07311532 0.08086837
0.1396752 0.124068834 0.052313022 0.18884088 -0.0014217412 0.040096097 0.18214794 0.19852503
-0.08084143 0.17185637 0.07167702 -0.018869046 0.17514554 -0.10215057 0.123770855 0.18943682
-0.1459005 -0.11931271 -0.19538486 -0.034210086 -0.16604587 -0.0652935 0.058980186 0.13624851
0.13281035 0.10254596 0.076014824 -0.120791115 -0.15278605 0.008479001 0.17586757 0.011826593
-0.021218639 -0.13222586 -0.09546334 -0.14399584 0.15546346 -0.10069086 -0.17081347 0.021983966
0.013692826 -0.023608956 0.07473129 0.10318774 -0.18094459 -0.14161204 -0.009577064 -0.19077772
00000000: 0d03 1a3d 8b1a cfbd f9c2 b7bd ef07 2a3e
00000010: e3b1 bf3d 5c7d 59bd cb02 eb3c 2905 cb3c
00000020: 61e7 1a3d d11c 6cbd 0e92 00be 7046 053e
00000030: f927 db3c 5307 983d 7cbd 95bd 519e a53d
00000040: 0407 0f3e cd17 fe3d 2e46 563d 815f 413e
00000050: b859 baba ce3b 243d fd84 3a3e 254a 4b3e
00000060: 3190 a5bd 1efb 2f3e 67cb 923d 4293 9abc
00000070: 5a59 333e 5134 d1bd 937b fd3d bafb 413e
00000080: f166 15be 395a f4bd f812 48be e01f 0cbd
00000090: ee07 2abe 99b8 85bd 3595 713d bb84 0b3e
000000a0: 70ff 073e 9e03 d23d a9ad 9b3d 5561 f7bd
000000b0: f273 1cbe 82eb 0a3c a116 343e 54c4 413c
000000c0: b6d2 adbc 3766 07be 4982 c3bd a573 13be
000000d0: d031 1f3e 0237 cebd bae9 2ebe b817 b43c
000000e0: e057 603c 9267 c1bc b80c 993d 1854 d33d
000000f0: 8a49 39be bf02 11be 1ee9 1cbc 3c5b 43be
