sharding/shards_out/shard_004.pt (torch, 591844 bytes, 2 tensors)

features.12.weight f4 [128, 128, 3, 3]
00000000: 02ca 053d c948 bc3d ca6e 363d e827 17bc
00000010: b889 4d3d c4fe 903d 7877 9fbc 37f0 6eba
00000020: b7f6 123d 6dac a7bd ee65 83bc 37bb 993c
00000030: 5cd5 29bd 1828 6ebc c742 683c 51ba 36bc
00000040: d866 c93b 6e1e f4bc f075 be3c 10d2 19bb
00000050: 7e65 12bd d873 6b3d 8e76 1d3d 9ef5 05bd
00000060: daf2 243c b760 243d f511 fcbc f177 e8bc
00000070: 4b27 19bc ade0 523c b737 b1bb e0ca 1a3d
00000080: 4b80 b33d 03c7 de3c 11cc b83d 8769 e23d
00000090: 6389 88bc 4826 41bb 559a 53bc fa2e a5bd
000000a0: 15c1 6abd 8e0c 55bc bc06 3fbd bbab 00be
000000b0: 20b9 2fbd 0cf4 663d 2e38 713d ea61 893d
000000c0: 7e1b 91bc df08 ccbd 875b adbb 24c0 20bd
000000d0: 4fc1 0ebe 35c8 6dbd e70c 16b8 11cd 813d
000000e0: 5320 993d 23cf 473d 014a 7d3d b9a8 743c
000000f0: 1631 0bbd 292d 7f3c d7a9 1e3d d970 eaba
00000100: c619 f4bb 96a4 d2bc e6ef 4ebd ee45 52bc
00000110: 3b90 ae3d b989 09bd c766 263a 0178 f23d
00000120: e127 813c 250c 633d 5a36 bd3c 45ed 743c
00000130: 7215 f43d c834 103e 21a3 c739 54ff 2b3d
00000140: d8b4 863d 50d9 373c d636 00bd e6d8 c3bc
00000150: 6444 093d 5c21 993c ee5e efbb db71 633c
00000160: 9e79 143d c726 ba3c 00ad 0ebd f02f 033d
00000170: 7e97 423d 6896 0fbd 458e 5ebd 8a20 53bd
00000180: 27a1 a3bb d346 0cbd 0b04 ad3c 4e98 1d3b
00000190: a023 33bd 2b60 10bc 9c09 c6bb 209c f8bb
000001a0: e980 943c 6021 9bbb 1160 fe3c 9f22 043d
000001b0: ad64 833b 3c74 0f3c 1fb4 8d3c c162 e2bb
000001c0: ba71 9bbb b7ba 203d 6630 903b 15b4 e93c
000001d0: 75a1 703d 5e34 883c c87c 873c 1a9c 49bb
000001e0: 49b1 d2bb 1632 85bd b6ef 6abd bef9 37bc
000001f0: eb37 51bd 7af6 24bd a7e3 593b 0dac 9cbb
00000200: bef4 813d eb57 803d 2f7c 543d 5dcf 603b
00000210: 8e3c 1b3d e195 233d 278b f2bc 59e4 f2bd
00000220: e7d7 3b3c 6267 763d 03e0 11bd da8d 3b3d
00000230: 0c19 583d c3ef 4f3d 0e3b c63d 7d48 543c
00000240: ea77 b63c fffe 983c a70a 343d 7b39 723d
00000250: a110 62bc ce39 65bd cc11 553d 8339 82bc
00000260: 9aab afbd 4dad 18bc 29fb d03c f409 2d3d
00000270: 0391 f33c 1a2a 053e b764 ea3d 7cfa 1c3d
00000280: 9346 ef3d 3aa8 c83d b943 5fbd f229 473d
00000290: 9b4a 963d ad9f d8bc e811 f33c 98f7 0b3d
000002a0: e251 993b cbcf 0cbd 39d6 d0bc 1882 ebbc
000002b0: 6cba 6b3d d226 3a3d 48d0 0bbc 5d6a c63d
000002c0: f6b4 b63d 95d2 bd3c 6e3c 043d d606 213d
000002d0: 5d24 45bc d383 92bb 8c0c e8bc 219e 0abd
000002e0: d553 64bc 7d87 ddbb 86ab 59bd 8c30 65bc
000002f0: c2f0 213d 8874 113d b3bb ed3b 264e a33c
00000300: e8a3 b3bb 2f6d 8ebd 8051 34bd d86c c1bc
00000310: 26b5 a3bd c1ba 22bd c0c4 143c 9ce6 3f3d
00000320: 3d37 ed3c cd51 adbb b4c0 803d f5d7 da3d
00000330: 265d 0ebc 69f4 6e3d ae65 b43d a88f e7bc
00000340: 11ed bc3b b4ee 82bc 0cdf b33b 2d7e f33c
00000350: 72ea 333c d3e5 983c 02ed 2a3d 7a59 763d
00000360: eb99 bb3b 7b1e c73c f428 903c eece cc3c
00000370: 4a02 913d 7fd7 3b3d 6643 98bb 2361 113d
00000380: c656 653d 8ee6 93bc e726 2fbd 6ff3 ffbc
00000390: e22d 4abd 9239 efbd 4843 8cbd b557 5abb
000003a0: 632d 69bd 0fcf 9abc 7ee5 72bc d6ba 08bc
000003b0: baf9 a4bb 54d5 803b 0b63 743c 3037 69bc
000003c0: c9c9 47bd 9660 2b3b 276b 10bd 18e7 dbbc
000003d0: c432 e7bc d6de 31bb 72df 35bd 2aaf 89bd
000003e0: 442e 10bc 1988 83bb 7eda dc3c 50e5 143c
000003f0: ae04 ecbc d20a a9bc 05d1 05bc f1e3 17bc
0.032663353 0.0919357 0.04453925 -0.009225823 0.050180167 0.07079843 -0.019466147 -0.00091147743
0.035879817 -0.081871845 -0.016039815 0.018766029 -0.04146324 -0.014535926 0.014176077 -0.01115282
0.006146293 -0.029799666 0.023249596 -0.0023471154 -0.03574132 0.057483524 0.03844314 -0.032704942
0.010067666 0.040131297 -0.030770281 -0.028377505 -0.009347747 0.01287095 -0.005408253 0.037791133
0.08764704 0.027194506 0.090232976 0.11055284 -0.016667074 -0.002947228 -0.012915214 -0.08065601
-0.057313044 -0.013003482 -0.04663728 -0.1256551 -0.04290116 0.056385085 0.058891468 0.06708129
-0.017713305 -0.099626295 -0.005290452 -0.03924574 -0.13940929 -0.05805226 -3.5774803e-05 0.063379414
0.074768685 0.048781525 0.061838154 0.014932805 -0.03398236 0.015574732 0.03873619 -0.0017886414
-0.0074493615 -0.025713246 -0.050521754 -0.012834055 0.085236035 -0.03357861 0.00063477125 0.11839295
0.015766086 0.055431504 0.023097206 0.014949148 0.11918153 0.14082634 0.00038077778 0.041991547
0.06577462 0.011221245 -0.031302296 -0.023907136 0.033512488 0.018692665 -0.0073050177 0.013882126
0.036248796 0.022723569 -0.034832954 0.03202814 0.047507755 -0.035055548 -0.054334898 -0.051544704
-0.004993576 -0.03424723 0.021120092 0.002404708 -0.043735147 -0.008811991 -0.006043626 -0.007586971
0.018127875 -0.004734203 0.031051667 0.03225958 0.004009804 0.00875574 0.017297802 -0.006908745
-0.004743782 0.039240565 0.004400301 0.028528253 0.058747727 0.016626533 0.016538993 -0.003076321
-0.0064298254 -0.06503694 -0.057357512 -0.011228977 -0.05107872 -0.04027412 0.0033247264 -0.0047812522
0.06345509 0.06266769 0.051876243 0.0034303286 0.037899546 0.039937858 -0.029607369 -0.1185996
0.011465049 0.060157187 -0.035614025 0.045789577 0.05275826 0.050765764 0.096792325 0.012956736
0.022273976 0.01867628 0.04395547 0.05913685 -0.01379791 -0.05596333 0.052018926 -0.015896564
-0.08577652 -0.009318662 0.025510387 0.04224582 0.029732233 0.13004342 0.11444991 0.038324818
0.11683383 0.09797712 -0.054507945 0.048623987 0.073384486 -0.026443327 0.029671624 0.03417167
0.0046789506 -0.034377854 -0.025492774 -0.028748557 0.057550833 0.04544718 -0.008533545 0.09688256
0.08921234 0.023171702 0.032284193 0.03931316 -0.012032595 -0.004471281 -0.028326295 -0.03384221
-0.013936003 -0.006760536 -0.053142093 -0.013988625 0.039536245 0.035511523 0.0072550415 0.019934725
-0.0054821856 -0.06954419 -0.044023037 -0.023611471 -0.07993536 -0.039728884 0.009080112 0.046850786
0.028957004 -0.0052892924 0.06286755 0.10685722 -0.0086892005 0.058338556 0.08808456 -0.028266743
0.005765565 -0.015982963 0.0054892357 0.029723251 0.010981189 0.018664276 0.041729935 0.060143925
0.0057251356 0.024306526 0.017597653 0.025001016 0.07080515 0.04585981 -0.0046467064 0.035493027
0.055990957 -0.018054273 -0.04276171 -0.031244008 -0.049360164 -0.116809025 -0.068487704 -0.0033316438
-0.05692805 -0.018897561 -0.014825223 -0.008345326 -0.0050346525 0.0039316807 0.014916192 -0.014234349
-0.04877642 0.00261501 -0.03525844 -0.026843593 -0.02822245 -0.0027140877 -0.044402547 -0.06722863
-0.008800093 -0.004014027 0.026959654 0.0090878755 -0.028810825 -0.020635042 -0.00816751 -0.009270654

features.12.bias f4 [128]
00000000: d6cf 0bbb 1fa8 1f3c ec24 813c 0e8c 9ebc
00000010: 889c c93c 1723 4b3c 00aa af3b db2c eb3c
00000020: c1af 00bc 75c4 8abb ff64 e33c 4dee b53c
00000030: f3ea 52bc bcba c4bc f261 893c 51bf cb3c
00000040: a9f1 98bc 8270 46ba 8949 b9bb ef7e e03c
00000050: 3c7f 693c bb72 78bc 7609 d7bc 6411 c1bb
00000060: 60a5 cebc e9dc 343c f264 893c 9ab8 853c
00000070: 351e bbbc c392 a93c 2792 173c 5c15 b6bc
00000080: d454 86bc dcfa 803b fb6f 273c bae9 2ebc
00000090: 2d34 c33c 52a7 7b3c 14b6 1b3c 2c82 a23a
000000a0: 0e27 403c f432 1fbc ee9f 863b 9168 1bbc
000000b0: 5036 82bc 4d53 d9bc 1ffd 1339 df21 a7bc
000000c0: 4e89 92bc 6ca5 a8bc 9f6c c43c f642 90bc
000000d0: 19e2 cdbc 803b 9b3c b220 dd3c 5f07 f23b
000000e0: fc6f a7bc 0401 1c3c 56ea 403c e033 ba3c
000000f0: 046c b2bc 8283 e73c 8f86 c1bc 8566 90bc
00000100: 8f74 aebb 65ac 9d3c 0124 66bc fcf8 f03b
00000110: 4225 e4b9 44e0 973c 081d f1bb 3129 ff3b
00000120: 8c1a 4fbc b3ac 263c b82a 2cbc 59cf ceb8
00000130: 2e58 e9bc b0c6 7d3c 28a4 2a3c 14db 7ebc
00000140: 6e43 85bc 8666 90bc 32b2 c8bc 6093 bb3c
00000150: 26d3 943c 8eeb 64bc 4fad b83b 7e56 a439
00000160: 2bfe 093c 201f d6bb f85c c53b 9770 b93b
00000170: a844 293c 19d0 ba3c 7b22 b9bc 5048 95bc
00000180: 96b4 b6bc fda5 603c 9bca 983b 5bf1 8fbc
00000190: 3be4 8cbc 40d9 c83c 069b bebc 5cb0 923c
000001a0: 0ba9 babc aa31 c1b9 fa4b 01bc 8feb e4bc
000001b0: fa91 95b8 ced6 80bc f1b4 99bc ab10 023b
000001c0: f23d abbc 4698 e63b 9c89 9bbc 48b1 ad3c
000001d0: 2d78 403b 088c 903b e71d b2bc 7400 91bc
000001e0: bbfb c13c d0a4 163c 9301 c73b d3dd cfbc
000001f0: 2ecf 1fbc 0976 013b 8d50 88bc 2b63 adbc
-0.0021333597 0.009744673 0.015764676 -0.019353893 0.024610773 0.012398503 0.0053608418 0.028707912
-0.007854403 -0.0042348453 0.02775812 0.022208357 -0.012873399 -0.024014823 0.016770337 0.0248715
-0.01866992 -0.00075698656 -0.005654518 0.027404277 0.014251526 -0.015164073 -0.026249629 -0.0058919657
-0.025225341 0.011038997 0.016771767 0.016323376 -0.022841552 0.020699864 0.009251154 -0.022226982
-0.016397871 0.003936155 0.010219569 -0.010675842 0.02382859 0.0153597165 0.00950386 0.0012398413
0.011728061 -0.009716738 0.0041084206 -0.00948538 -0.015895039 -0.026528979 0.00014113307 -0.020401893
-0.017887738 -0.020586692 0.023977576 -0.017610054 -0.025132226 0.01894927 0.02699313 0.0073861326
-0.02043914 0.0095217265 0.01177462 0.022729814 -0.021780021 0.02826095 -0.023623733 -0.01762701
-0.0053239535 0.019247243 -0.01404667 0.0073539 -0.00043515308 0.018539555 -0.007358197 0.007786893
-0.012640607 0.010173011 -0.010508232 -9.861467e-05 -0.02848443 0.015489265 0.010415114 -0.015555162
-0.016267505 -0.017627012 -0.024499033 0.022897422 0.01816709 -0.013972176 0.0056358944 0.0003134496
0.008422415 -0.006534472 0.0060230456 0.0056591737 0.01033131 0.022804307 -0.02259945 -0.018222958
-0.022302907 0.01371145 0.0046628243 -0.017571142 -0.017198673 0.024517655 -0.02326728 0.01790636
-0.022785684 -0.0003684883 -0.007891649 -0.027944354 -7.132064e-05 -0.015727427 -0.018763037 0.001984636
-0.020903561 0.0070371954 -0.018986516 0.021202698 0.0029368505 0.0044112243 -0.021742774 -0.017700411
0.023679605 0.009194568 0.0060731857 -0.025374329 -0.009753985 0.0019754192 -0.016639972 -0.021165451
