sharding/shards_out/shard_005.pt (torch, 2532 bytes, 2 tensors)

features.13.weight f4 [128]
000000 c7 9e 25 40 34 e8 81 40 98 eb 69 40 54 82 22 40
       2.587816 4.059595 3.6550045 2.5392046
000010 94 e0 06 40 f3 32 6b 40 2c a9 b2 40 3f c7 b5 40
       2.1074572 3.6749847 5.583151 5.680572
000020 51 eb 90 40 60 1c 85 40 40 67 43 40 22 88 c8 40
       4.528725 4.1597137 3.0531769 6.266618
000030 e4 2e 3c 40 84 6d 93 40 69 3f ea 40 e0 21 b7 40
       2.940362 4.6071186 7.3202405 5.722885
000040 f0 98 84 40 e5 7e 9e 40 16 40 6a 40 71 75 9a 40
       4.143669 4.95299 3.6601615 4.826836
000050 26 98 58 40 f0 a2 86 40 7f 5a 5e 40 2d 2c 61 40
       3.3842864 4.20739 3.4742734 3.5183213
000060 49 71 74 40 38 7f 8b 40 f8 7d 67 40 29 a7 2a 40
       3.8194144 4.3592796 3.6170635 2.6664526
000070 4f 36 82 40 4c 44 c6 40 b9 1b 99 40 d3 95 77 40
       4.0691295 6.195837 4.784634 3.8685195
000080 8d 3b 96 40 c1 77 43 40 d7 d2 8b 40 b7 2c 70 40
       4.6947694 3.0541842 4.3694873 3.7527292
000090 01 f9 8b 40 15 fc 67 40 f3 b5 50 40 ba 84 8b 40
       4.374146 3.6247609 3.2611053 4.359952
0000a0 01 12 d3 40 64 54 91 40 8d 94 85 40 68 b4 a6 40
       6.5959477 4.5415516 4.1743836 5.2095222
0000b0 2b 28 0a 40 a3 d0 a4 40 cc 26 91 40 cd c1 6d 40
       2.1587017 5.1504683 4.535986 3.7149537
0000c0 16 82 21 40 2d 08 b3 40 d4 60 1c 40 ff fc 7f 40
       2.5235648 5.594748 2.44341 3.9998167
0000d0 77 60 b6 40 2d 2a 6a 40 af c3 9d 40 fe bd ba 40
       5.6992755 3.6588242 4.930137 5.8356924
0000e0 40 d7 c1 40 ad cd 70 40 2e 7b 55 40 87 25 93 40
       6.0575256 3.7625535 3.3356433 4.598331
0000f0 b4 8d 3c 40 6e 2c c1 40 5a 00 a3 40 96 e2 2c 40
       2.9461489 6.0366735 5.093793 2.7013297
000100 f5 65 33 40 c3 5e 24 40 c1 c6 c4 40 ab 69 6b 40
       2.803098 2.5682838 6.149262 3.6783245
000110 c4 e6 30 40 2d 2c 9c 40 ed 36 94 40 41 e6 aa 40
       2.7640848 4.8803926 4.631705 5.340607
000120 d4 e4 62 40 02 2c 97 40 a7 42 5a 40 fe d2 93 40
       3.5452166 4.724122 3.4103181 4.619506
000130 87 85 85 40 ba b2 5e 40 e9 23 b2 40 98 0b 96 40
       4.1725497 3.4796586 5.5668836 4.6889153
000140 3a 8e 71 40 5d 8f 8c 40 e1 a6 8e 40 6c 03 7c 40
       3.7743058 4.3925004 4.457871 3.9377089
000150 83 46 8b 40 ca fc 81 40 fc 5e 7f 40 dc a6 a1 40
       4.3523574 4.062108 3.9901724 5.0516186
000160 e0 d1 96 40 00 08 71 40 eb 24 a2 40 9e 60 81 40
       4.7131195 3.7661133 5.0670066 4.043044
000170 4b d9 43 40 eb 08 8c 40 fd c2 76 40 ae 1c 8e 40
       3.0601375 4.3760886 3.8556511 4.441001
000180 99 c7 98 40 0e f9 0c 40 a4 c2 b3 40 10 c2 9c 40
       4.774365 2.202701 5.61751 4.8986893
000190 eb d4 0e 40 ec 2d 61 40 fa 76 89 40 b1 78 9e 40
       2.2317455 3.5184278 4.2957735 4.952233
0001a0 15 9c 59 40 5c ea 5c 40 07 23 50 40 63 db 87 40
       3.4001515 3.4518042 3.252138 4.2455306
0001b0 22 56 64 40 be ca 86 40 80 d5 2a 40 23 33 c0 40
       3.5677571 4.212249 2.669281 6.0062423
0001c0 36 88 9e 40 13 5c 4e 40 06 a5 aa 40 ed 11 6b 40
       4.9541273 3.2243698 5.3326445 3.672969
0001d0 de ca 73 40 72 8b d1 40 33 c4 0c 40 a2 63 7b 40
       3.809257 6.548272 2.199475 3.927956
0001e0 43 37 9d 40 6f de e1 40 28 34 ac 40 65 65 59 40
       4.912996 7.0584025 5.3813667 3.3968136
0001f0 f6 f8 83 40 9f a1 ba 40 79 1f b9 40 79 54 a3 40
       4.1241407 5.832229 5.785092 5.1040616

features.13.bias f4 [128]
000000 9c 33 16 40 18 f2 6b bf 44 cc cf be 2e 48 c0 3f
       2.3469 -0.9216628 -0.4058553 1.5022027
000010 30 6b 92 40 72 0f 4b 3e 9d 9e 03 c0 e7 aa 1d c0
       4.5755844 0.1983011 -2.056556 -2.463556
000020 68 5f 0d c0 fc 60 e7 bf 08 c7 7a 3f c8 3e 60 c0
       -2.2089481 -1.8076472 0.9795995 -3.5038319
000030 e5 c1 1b 3f e3 25 ce bf 5e 11 90 c0 4c 82 19 c0
       0.60842735 -1.6105312 -4.50212 -2.3985777
000040 26 9e a2 bf ec 03 05 c0 14 a3 2b bf 4b 94 61 bf
       -1.2704513 -2.0783644 -0.6704571 -0.881169
000050 f4 38 0d 3f b5 35 c9 bf 27 b9 b1 be a6 16 95 bf
       0.5516503 -1.5719515 -0.34711573 -1.1647537
000060 a3 45 65 bf d0 fc 87 bf da 78 fb be e3 08 c6 3f
       -0.8955938 -1.0624027 -0.4911564 1.5471462
000070 54 9f 9e bf c9 a0 29 c0 ea 42 0f c0 51 af 54 be
       -1.2392373 -2.6504385 -2.238459 -0.20770003
000080 0d aa 09 c0 20 5e 40 40 bf 9c 70 bf 11 55 96 be
       -2.151004 3.005745 -0.93989176 -0.29361776
000090 f9 b3 2d bf 4c 9b a1 be b3 dd 3b bf 99 cd 40 be
       -0.6785274 -0.31563795 -0.7338516 -0.1882843
0000a0 3d 97 60 c0 5e cd 77 bf 2e 09 64 bf aa dd ce bf
       -3.5092309 -0.9679774 -0.8907651 -1.6161397
0000b0 ee 14 87 40 ce 39 28 c0 76 99 c5 bf 9f 00 5a 3c
       4.221305 -2.628528 -1.5437458 0.013305812
0000c0 25 4d 49 40 01 67 23 c0 c1 53 a4 3f 30 51 73 bf
       3.1453335 -2.5531619 1.283806 -0.9504576
0000d0 65 02 28 c0 8d e9 c5 3f 3d 4b 06 c0 01 cc 59 c0
       -2.6251462 1.5461899 -2.0983422 -3.4030764
0000e0 57 63 8a c0 58 2f 0d c0 23 c2 ec 3f e4 0c 01 c0
       -4.3246264 -2.2060146 1.8496746 -2.0164118
0000f0 2c 62 c0 3d a4 41 04 c0 41 15 a0 bf 7f 7d 29 3f
       0.09393725 -2.0665064 -1.2506486 0.66207117
000100 33 c8 14 3f a7 49 96 3f 9f 8b 30 c0 ad 0a ee be
       0.5811798 1.1741227 -2.7585218 -0.4649252
000110 f8 85 a4 3f bf d6 e3 be 2e 7a f3 bf 88 b1 3a c0
       1.2853384 -0.44499776 -1.9021661 -2.9170856
000120 3a f0 11 40 29 5f be bf be df c6 3f cb c3 a7 bf
       2.2802873 -1.487279 1.5537031 -1.3106626
000130 b0 e0 ea be 3d 8e 2f 3e 6c 5e 2b c0 9a 94 91 bf
       -0.45874548 0.17144103 -2.677638 -1.1373475
000140 29 df 08 c0 cf 28 d6 bf 80 76 c0 bf 44 88 1e bf
       -2.1386206 -1.6731204 -1.5036163 -0.61926675
000150 67 66 f3 bf f7 98 b2 bf 53 fe 4f bf c8 b8 1f c0
       -1.9015626 -1.3952931 -0.8124744 -2.4956532
000160 95 d0 c9 bf 27 3b 4f bf bc cb 00 c0 27 4e b3 be
       -1.5766779 -0.80949634 -2.012435 -0.35020563
000170 79 2a cc 3f 09 83 8f bf 4c 78 9f 3f 75 2d c2 bf
       1.5950462 -1.1211864 1.2458587 -1.5170122
000180 20 71 ec bf 99 8c b3 40 f6 53 27 c0 69 eb e0 bf
       -1.8472023 5.610913 -2.6144996 -1.7571841
000190 34 ed 7e 40 37 8b be bd bf 8c 45 bf 64 2a 11 c0
       3.9832277 -0.09303897 -0.77167886 -2.2682123
0001a0 10 65 17 be 7c 46 8d bf c9 c4 dc 3e b3 af ff bd
       -0.14784646 -1.1037135 0.43118885 -0.12484684
0001b0 55 31 a9 be 1e 7a 72 bf 5e 8c cd 3f f0 d1 5d c0
       -0.3304545 -0.94717586 1.6058462 -3.4659386
0001c0 22 0e 0d c0 4e fe e2 3f bb 2c 0d c0 c6 b7 e5 3f
       -2.2039876 1.7733858 -2.2058551 1.7946708
0001d0 70 fe 13 bf ae dc 4f c0 29 81 a2 40 fa 0b 68 3c
       -0.57810116 -3.2478442 5.0782666 0.014163012
0001e0 0d b5 06 c0 dd c0 65 c0 48 da 04 c0 63 f9 14 40
       -2.1048005 -3.5898964 -2.0758228 2.3277214
0001f0 92 d9 73 bf 0f 7e 9e c0 98 9e f8 bf d9 66 06 c0
       -0.9525386 -4.952888 -1.9423399 -2.1000273
