sharding/shards_out/shard_018.pt (torch, 296932 bytes, 2 tensors)

features.4.weight f4 [128, 64, 3, 3]
000000 49 3e 88 bc 37 0d ab 3c ad 33 4c 3c a5 30 c6 3a
       -0.016631262 0.020880325 0.012463492 0.0015120698
000010 3c 41 1a bd c5 02 1d bd 70 ba 4b ba 6a 18 d9 3c
       -0.03765987 -0.03833272 -0.0007771617 0.0265009
000020 7d 9e e6 3c 20 3f f8 3b e5 23 bc 3c 60 ec c6 3c
       0.028151745 0.0075758845 0.022966335 0.024282634
000030 a8 54 05 bb 2f 5a 14 3c 6b e2 03 bb 89 b8 be bc
       -0.0020344649 0.009054705 -0.002012397 -0.023281353
000040 fb 24 8f bc 05 0e b4 bc 0d 44 08 be e8 62 d0 bd
       -0.017473688 -0.021979341 -0.1330721 -0.10175115
000050 09 d4 98 bd 78 8c 9e 3d b4 f7 f0 3d 4d 87 c2 3d
       -0.074623175 0.07741636 0.117659956 0.09498463
000060 8d 55 1c bd 7c cc 91 bd 51 0c e9 bc 94 0d 34 af
       -0.038167525 -0.071190804 -0.028448256 -1.6375729e-10
000070 c2 d3 3e af f9 ba ca ae 26 83 79 2e e3 bb f4 2e
       -1.7355631e-10 -9.2191095e-11 5.673253e-11 1.1129211e-10
000080 86 98 3b 2f 87 6e 1e af 72 15 e3 ae 79 54 9d ae
       1.7061738e-10 -1.4409283e-10 -1.0326574e-10 -7.154539e-11
000090 b7 d6 06 3e a6 75 9d 3d f0 31 f7 3d 02 15 10 be
       0.13167845 0.07688455 0.12070072 -0.14070514
0000a0 0e 89 90 be 1b 62 fc bd 08 99 63 3d ab c2 08 3d
       -0.28229564 -0.123234 0.055565864 0.033388775
0000b0 81 09 a4 3c b3 69 d6 bc f3 ff 9e bc c5 19 59 bc
       0.020024063 -0.026173448 -0.019409155 -0.013250773
0000c0 d0 d9 8e 3c 59 ff 84 3c ef 2d ec 3b 84 20 26 bc
       0.017437845 0.01623504 0.007207624 -0.010139588
0000d0 b2 48 fe bb 56 5b c1 bb 49 67 d6 3c d4 a3 29 bd
       -0.007760131 -0.0059007807 0.026172297 -0.041416004
0000e0 1c 34 c3 bd ea c4 2c 3d 25 1c c0 3c 64 0f fe 3c
       -0.095314234 0.04217998 0.02345092 0.031013198
0000f0 f2 18 33 bd eb 4e 66 bb 72 c0 ee 3b 21 73 80 3e
       -0.04372496 -0.0035142254 0.007286125 0.25087836
000100 de 09 c7 3e f0 8f 24 3e 36 c0 b5 be 69 33 bd be
       0.38874716 0.16070533 -0.35498208 -0.36953285
000110 98 75 4d be c6 37 05 3b 2f 1a 3b bc e9 30 61 bc
       -0.2006439 0.0020327433 -0.011419817 -0.013744571
000120 ba e6 24 bc 77 9c 6e bc a8 9e 0b 3c 4d fa e5 3c
       -0.010064775 -0.014563671 0.008521713 0.028073454
000130 34 fc 0f 3c c5 37 b4 3c 0c a8 cb 3b 29 88 1b bc
       0.008788157 0.02199925 0.006215101 -0.009492912
000140 d9 4c 91 ba 26 01 82 bc e5 f6 94 bc fa 69 32 3c
       -0.0011085524 -0.015869688 -0.018184135 0.010889525
000150 c5 c9 d3 3c 53 b3 5f 3c cc 9a 66 3c ca a3 e3 bc
       0.025853047 0.013653594 0.014074992 -0.027788062
000160 57 df ed bc ba d3 09 bd f7 2c 91 3e bd 44 a8 3e
       -0.02903716 -0.033649184 0.28354618 0.32864943
000170 6e 4f 7b 3d 03 2b 07 be 28 1a b4 bd 4f 65 c9 bd
       0.061355047 -0.13200001 -0.087940514 -0.09833776
000180 4a d5 e5 37 ee 3b 8e 3d 1f 4e 57 3d 85 4f 25 bd
       2.7398248e-05 0.069450244 0.052564736 -0.04035904
000190 24 c4 af bd 48 3d c6 bc 9d 02 76 3d a7 c4 8b 3d
       -0.08582333 -0.024199143 0.060061086 0.06824618
0001a0 78 66 0f 3d 6c 11 96 ba 12 cf 03 bc d6 81 0a 3c
       0.03500983 -0.0011449284 -0.008044975 0.008453807
0001b0 b2 36 13 2e 76 07 fd 2d 89 e8 37 2e ce a2 ed 2d
       3.347251e-11 2.8766083e-11 4.1815915e-11 2.701608e-11
0001c0 b2 9f be 2d 03 14 0c 2e 4b 1f 41 2e 9d 5d 32 2e
       2.1671418e-11 3.185009e-11 4.3910913e-11 4.055566e-11
0001d0 ac 8d 56 2e a4 96 18 bb 22 f2 ea ba 99 d4 11 3c
       4.8783796e-11 -0.0023283148 -0.0017924944 0.008900785
0001e0 12 5d 61 3c 34 8c 33 3c 70 35 6c 3c ef e1 28 bd
       0.0137551 0.01095872 0.014417037 -0.041231092
0001f0 56 07 41 bd 7d 0c fc bc 42 88 c9 3b d0 af 09 3b
       -0.047126137 -0.030767674 0.0061502764 0.0021009333
000200 f3 90 ca bc 8f d4 bb 3c 97 8f 24 3d fe dc 84 bb
       -0.02472732 0.022928504 0.040176 -0.0040546646
000210 10 e2 49 bc 86 5c ac bb 9c a6 08 bd 7b e2 50 3c
       -0.012321964 -0.005260053 -0.033362016 0.01274931
000220 94 03 08 3d 82 a8 3f 3c a2 34 48 bc 34 af a3 ba
       0.033206537 0.01169789 -0.01221958 -0.0012488128
000230 48 0e b0 bc d9 51 cf bc c6 c6 53 bc c5 c1 54 bc
       -0.021491185 -0.025307583 -0.012925809 -0.012985651
000240 4f 36 8f 3e a8 7e d7 3e 32 dc d7 3e 73 3a 33 be
       0.27971122 0.4208882 0.42160183 -0.17502765
000250 73 d5 0b bd 62 7f 05 bd 39 07 32 be a6 e9 07 bd
       -0.034139108 -0.032592185 -0.17385568 -0.03318181
000260 01 9e 07 bd bc b5 bf 3b 06 c3 98 3c 8a 91 f6 3b
       -0.03310967 0.005850522 0.018647682 0.007524674
000270 d2 ee c2 3b eb 88 63 3c 42 0d 91 3b 44 a3 c8 bc
       0.0059488798 0.013887624 0.0044266293 -0.024491914
000280 4a ea ac bc aa aa ac bc 38 38 2d bc 7d a5 cc bb
       -0.021107811 -0.021077473 -0.010572486 -0.0062453137
000290 84 51 02 bc db 6b 0f 3b c6 91 46 3c 8f f6 9c 3b
       -0.007954005 0.0021884355 0.012119716 0.0047901343
0002a0 8d a9 33 ba 88 3d 99 3b 87 7f 90 3b 40 28 9d 3c
       -0.0006853573 0.0046765245 0.0044097337 0.019184232
0002b0 e6 c8 34 bd 9c 2f f9 bc 62 af 4f 3d 6c 45 e0 bb
       -0.044136904 -0.03041821 0.050704367 -0.006844213
0002c0 d7 cb e0 bc ec fa 3e 3c 80 19 1d 3d 58 66 94 3c
       -0.027440948 0.011656504 0.038354397 0.018115208
0002d0 07 47 62 bd bd 02 41 bd d4 49 ce 3c b9 83 47 bd
       -0.05524352 -0.047121752 0.025181688 -0.048709605
0002e0 04 b6 3c 3c fe c1 f6 3c cb 39 3a 3d 0a 89 12 3d
       0.011518005 0.0301218 0.045465272 0.035775222
0002f0 79 40 15 bc b1 fb a4 1e 6c 85 1c 1e a7 a4 c3 1e
       -0.00910961 1.7468273e-20 8.286162e-21 2.0714527e-20
000300 11 bd 90 9c 6d 9a 1e 9d 23 36 f2 1d 2b da 96 9d
       -9.577993e-22 -2.0990962e-21 6.4112843e-21 -3.993025e-21
000310 ab b8 84 1c 38 4c 80 1d 0e 18 e2 bc eb ea 44 bd
       8.782763e-22 3.3960126e-21 -0.02759936 -0.048075598
000320 41 b3 96 bc 7a 41 81 3d 5d 2b f9 3c 6d b1 50 3d
       -0.018396022 0.06311317 0.030416185 0.050950456
000330 ed 61 90 bc 21 8e d1 bc b0 0b bd bc 4a 3a f3 3c
       -0.01762482 -0.025580468 -0.023076862 0.02969088
000340 d6 b0 bf 3c ea 56 16 bd 79 b7 5b 3c 13 0e f1 bc
       0.023399752 -0.03670398 0.0134104425 -0.029425656
000350 8c 01 84 bc a8 b4 0c bd b1 48 60 bb 43 d8 19 3d
       -0.016114019 -0.034351975 -0.0034223015 0.03755976
000360 b3 92 5b bd d7 aa c7 3c cb 74 e6 3d ac 5b ea bc
       -0.0536067 0.024373455 0.11252745 -0.028608166
000370 00 79 25 bd 68 d5 76 3c 7c 97 75 3d b4 70 12 3d
       -0.040398598 0.015065528 0.05995892 0.035752013
000380 5a c2 78 bc 16 16 15 bb bf 24 0e 3d 56 40 3c 3c
       -0.015183056 -0.002274876 0.034703013 0.011489948
000390 e4 16 92 bc c8 f5 26 3d e4 4b bd bb d7 1b a0 bc
       -0.01783318 0.04076174 -0.005776869 -0.019544525
0003a0 58 3f a3 3b 13 41 10 3d cb 08 00 3c 6e a6 ed 3b
       0.0049819164 0.03521831 0.007814596 0.007252506
0003b0 8b f2 9d 3c 94 41 da 3c ba 91 6d 3c 35 97 eb 3c
       0.019280693 0.026642598 0.014500076 0.028758625
0003c0 f2 0f c5 bc af 40 9d bc 99 b4 0a bc ac 9d 03 be
       -0.024055455 -0.019195883 -0.008465909 -0.12853116
0003d0 81 e4 60 be a5 3e fe bd d3 26 28 3e aa 1b 3e 3e
       -0.21962167 -0.12414292 0.1642106 0.1856524
0003e0 f2 01 10 3d 84 6b c3 bb e5 a1 14 3c 0e 64 fa bb
       0.035158105 -0.0059637446 0.009071802 -0.007641322
0003f0 75 05 8d bd be 55 d3 3d fd bf 01 3c b6 cd c6 bc
       -0.068858065 0.103190884 0.007919309 -0.024268012

features.4.bias f4 [128]
000000 3d 91 fc 3c 2a 63 ad bc bb 96 1e bc ce 3b 24 3d
       0.030830974 -0.02116545 -0.009679492 0.040096097
000010 d9 7f fb bc 6e a8 a8 3c f5 a9 55 3c 91 cb 8d bc
       -0.030700611 0.020588126 0.013041009 -0.017308982
000020 c1 16 1b bb e1 57 60 3c 8b 7f f2 bc 98 0b 16 3c
       -0.0023664685 0.013692827 -0.029601833 0.009158038
000030 67 03 fd 3c 81 f7 bf bc eb 77 11 3d d5 4a 21 bb
       0.030885411 -0.023433449 0.035514753 -0.0024611254
000040 60 b4 e1 3b ea 94 e8 3a 90 98 d4 3c 9a 53 e2 3c
       0.0068879575 0.0017744575 0.025951654 0.027627755
000050 d7 37 2f bc a1 3c 8b 3b 73 35 42 ba 3f 2c d9 3c
       -0.010694466 0.004249171 -0.0007408477 0.026510356
000060 ec 8c 24 bc 8f 62 1b bd 07 bd 67 bb 46 90 07 bd
       -0.010043364 -0.03793579 -0.0035360472 -0.033096574
000070 ba fb c1 3c c4 1b f3 bc 5e 39 5c 3c 9b dc ab bc
       0.023679603 -0.029676326 0.013441412 -0.020979216
000080 f9 51 08 bc 7b ab 02 bd 9a eb be bc cc 17 fe bc
       -0.008320325 -0.031901818 -0.023305703 -0.031017207
000090 7a 99 ef 3c 45 57 ce 3b 8d c7 be bc 27 6e f1 3c
       0.029247988 0.0062970244 -0.023288513 0.02947147
0000a0 dd cf 78 3b 95 28 ed 3c a0 5a b1 bc 5d 09 23 bb
       0.0037965693 0.028950015 -0.021649659 -0.0024877407
0000b0 13 ec 42 3b a5 73 13 bd 3b 37 9d bc 59 bb d6 bc
       0.0029742762 -0.03599896 -0.019191375 -0.026212381
0000c0 25 38 b8 3c 20 ad 50 bb 6b f8 38 3b a2 04 a1 3c
       0.02248771 -0.0031841472 0.002822424 0.01965553
0000d0 1b 8f bd bc 24 26 25 3d 60 75 15 bc 5e c2 25 bc
       -0.023139527 0.040319577 -0.009122223 -0.0101171415
0000e0 bf 8b da 3c 68 72 87 39 b1 fc b6 3b e1 7c af 39
       0.026677964 0.00025834446 0.0055843224 0.00033471643
0000f0 10 fa 06 bb 57 78 bb 3a 75 92 20 3d ba 37 9e 3c
       -0.0020595826 0.0014302832 0.039202172 0.019313682
000100 9c 21 78 3c 76 67 98 bb ba 84 0b 3c 5d d4 b8 3b
       0.015144732 -0.0046510054 0.008515531 0.00564055
000110 3b 8d 87 3c c6 ec 08 3d af a5 57 bc 81 2c 08 3d
       0.016546836 0.03342893 -0.013162061 0.033245567
000120 bb fb c1 bc 5c 03 23 3d 2a 51 9a bc 8c 5c 9b 3b
       -0.023679605 0.039798126 -0.01883753 0.004741257
000130 c2 6e 03 3c ec 36 14 3d 68 c2 e6 3c e4 3a 89 3c
       0.008022012 0.03618519 0.028168872 0.016751714
000140 21 55 8f 3c f8 e2 8e bc 4b 94 56 3c b1 06 19 bc
       0.017496647 -0.017442212 0.013096879 -0.009339974
000150 93 8d 90 3c 39 50 92 bb 02 d1 d5 3c c3 80 96 3c
       0.017645633 -0.0044651297 0.02610064 0.018371945
000160 c7 51 ac bc 04 f8 7b bc aa 18 3f 3c 7b 34 cc bc
       -0.021035088 -0.015378956 0.011663595 -0.024927368
000170 39 01 e4 bc 8d 0b 3c 3c a3 61 00 3d 1f 9b bd bc
       -0.027832614 0.011477363 0.031343114 -0.023145257
000180 57 76 0a bc b5 29 5d bc 0d 03 1a 3d 94 8d 90 3c
       -0.008451066 -0.013498713 0.037600566 0.017645635
000190 e8 ca 21 bd a7 44 29 bd 90 56 08 3d 11 f8 d5 3c
       -0.039500147 -0.041325238 0.033285677 0.026119264
0001a0 af 93 c4 bc e2 7b 06 bd 86 01 6d bc b6 e2 df bc
       -0.023996202 -0.032832988 -0.014465695 -0.027329784
0001b0 0a 44 17 3d 22 55 0f bd 81 18 c4 3c 92 1e df 3b
       0.03693012 -0.0349933 0.023937466 0.006809064
0001c0 22 85 48 bb 41 ee db bb a7 ee 18 3c 21 67 22 bd
       -0.0030596931 -0.0067117517 0.009334243 -0.039649133
0001d0 1c ee 61 bc 16 de fe bb 4c a4 f8 3c 60 0a f2 3c
       -0.01378968 -0.0077779396 0.03035178 0.029545963
0001e0 0e b0 09 bd f9 28 83 3c e4 4c 9c bc 60 93 bb bc
       -0.033615164 0.016010748 -0.019079633 -0.022897422
0001f0 8f eb e4 3c a6 bb df 3c eb 60 fd bc cc 6a 0e 3d
       0.027944354 0.027311157 -0.030930003 0.03476982
