sharding/shards_out/shard_026.pt (torch, 591844 bytes, 2 tensors)

features.8.weight f4 [128, 128, 3, 3]
000000 9b 83 a8 ba 15 62 5c 3d 23 23 15 3d 39 85 0f bd
       -0.0012856604 0.053804476 0.036410462 -0.03503916
000010 e7 4e e0 3d fc 0b fd 3d 9e 4c 4e bd 70 c6 04 3c
       0.109525494 0.123558015 -0.050366037 0.008103952
000020 c5 ee e2 3c 9a 67 83 3c 55 ef 59 bd 9d 42 da bd
       0.027701745 0.016040612 -0.05320676 -0.10657237
000030 33 bc 36 3c 3d e0 9b bd 6b 20 59 be 3e af 68 3b
       0.011153269 -0.076111294 -0.21203773 0.0035504843
000040 df 2e 6e 3c 43 ca 29 3d 13 9a 43 3d 8d f4 ce 39
       0.014537542 0.041452657 0.04775436 0.00039473586
000050 75 3b 2a bd 6e f2 92 3c 32 10 4d bd c5 3f 93 bd
       -0.04156061 0.017937865 -0.050064273 -0.071898974
000060 93 49 41 3d d6 f7 4d 3d 71 2f 54 3d b7 de 10 3e
       0.047189306 0.050285183 0.051803056 0.14147459
000070 78 c8 58 be 7a e9 00 bd 9f 23 d6 3d e7 eb ec be
       -0.21170223 -0.03147266 0.10456013 -0.4627373
000080 10 46 fb bd c8 a8 b6 3d 25 22 48 bd 94 41 91 3d
       -0.12269223 0.08918911 -0.048860688 0.07092586
000090 9e b4 fa bb 4a fb bc bb c7 58 eb bb d2 27 59 bc
       -0.007650926 -0.0057672607 -0.007182214 -0.013254123
0000a0 8e 1e 87 3b 0b 70 ba ba 33 09 c3 bc 40 6c ce bb
       0.0041235154 -0.0014224065 -0.023808097 -0.0062995255
0000b0 89 c8 b1 b9 87 f0 8d 3c e9 e7 0c bd 69 48 29 bc
       -0.0003390948 0.017326606 -0.034400854 -0.010332205
0000c0 a6 84 81 bd a4 45 15 3d 5c e8 ba 3c 54 ee 5d bd
       -0.06324129 0.036443368 0.022815876 -0.054182366
0000d0 11 52 66 bc 8e 3e 47 bd f7 a0 0f 3d dd 9a a4 3d
       -0.014057652 -0.04864364 0.035065617 0.0803735
0000e0 7b 57 79 3d 8d 05 05 3d a4 80 b3 3d da 7f 92 3d
       0.060874444 0.032475997 0.087647706 0.07153292
0000f0 a4 c6 3a bd 88 0a 29 bd d3 6e 2d bd 2c 4c f9 3c
       -0.045599595 -0.04126981 -0.04234202 0.03043183
000100 66 7a 85 bb 1e 02 c2 3c 4b 53 18 3d 61 ea 16 bc
       -0.004073429 0.02368265 0.03718881 -0.009211154
000110 90 5e ff 3c c3 e3 02 3d 9f 38 c0 3a f1 8c 97 3c
       0.03117302 0.03195549 0.0014665312 0.018499823
000120 2f ec ee bc 25 e2 e5 bc 2a e0 88 bb a8 78 01 3d
       -0.029165355 -0.028061936 -0.004177113 0.031609207
000130 8e 0b 3c bd fb ee 02 3d e1 d4 0e bb b2 09 8d bd
       -0.045909457 0.03196619 -0.0021794366 -0.06886615
000140 28 07 4d bd 9d 00 cb bc b6 47 c9 bc 8b 13 fe bc
       -0.050055653 -0.024780566 -0.024570327 -0.031015178
000150 69 3c e9 bb 0c e1 ee bc a5 6b 0c bd 59 c1 84 bc
       -0.007117797 -0.029160045 -0.034282345 -0.016205477
000160 63 19 b1 bc 96 f0 95 bc 37 3b 2c 3d f7 95 5d bb
       -0.02161855 -0.018303197 0.04204866 -0.003381131
000170 30 db 08 3d 90 cc 26 3d 0f 55 90 bc 93 1a f1 3c
       0.03341216 0.04072243 -0.017618684 0.029431617
000180 10 06 b5 bc bf 44 8c bd ca 73 c6 bc e5 a6 25 bd
       -0.022097617 -0.0684905 -0.024225134 -0.040442366
000190 39 a8 ad bc 04 fd 40 bc a2 6c b4 bc 38 f6 a1 bd
       -0.021198379 -0.011779074 -0.022024456 -0.079082906
0001a0 09 28 85 3d 9c ce 32 3c 58 1f 86 bc 34 9b 93 bc
       0.06501777 0.010913517 -0.016372368 -0.018018343
0001b0 9c 9c 72 3d 3f 06 06 3c c8 9e 1b 3d 0f 7d 73 3d
       0.059231386 0.0081802 0.037993222 0.059445437
0001c0 81 39 f8 3d 9c d6 0c 3e 53 33 91 3d 60 41 1f 3c
       0.12120343 0.13753742 0.070898674 0.009720176
0001d0 06 1c 28 3d 6c 26 7a bc 6d d9 cd 3b d3 4e 22 3c
       0.04104235 -0.01526795 0.0062820227 0.0099064885
0001e0 3c 04 89 3c bd 7b 8c 3d 3e d3 52 3d 64 02 21 3d
       0.016725652 0.06859539 0.051470987 0.03930892
0001f0 52 fa 0b 3e 17 8c 21 3e 99 26 32 3d 13 b2 92 3d
       0.13669708 0.15776096 0.04349384 0.07162871
000200 6b d0 8a 3d 6b c9 4a 3d c0 35 ec 3d 59 20 bf 3d
       0.06778034 0.049508493 0.115336895 0.09332342
000210 a7 be 83 3d 42 7a b7 3d d8 a7 e5 3d 23 8e 21 bc
       0.064328484 0.08958866 0.11213654 -0.009860548
000220 b4 69 9d bc 86 e8 50 3d 7e c8 be bc 2d 22 bb bd
       -0.019215442 0.051003 -0.023288961 -0.09137378
000230 31 c1 98 bd 84 34 59 bc e4 4b 76 3c ed 5e db 3d
       -0.07458723 -0.01325715 0.015032742 0.10711465
000240 ec e5 b7 bc 07 10 90 bd 65 93 81 bd 61 2a 4d 3d
       -0.022448502 -0.07034307 -0.063269414 0.050089244
000250 8f 61 94 bd 8c 15 85 3d 01 08 05 bd 05 1c ae 3d
       -0.0724517 0.0649825 -0.032478336 0.08501438
000260 bf 76 dd bb 73 11 c4 bb 6b e3 c0 bd 75 25 27 3c
       -0.0067585404 -0.0059835254 -0.094183765 0.010201802
000270 49 f0 e0 bc 32 b9 7e be a6 54 3b bd 45 a2 78 bd
       -0.027458327 -0.24875334 -0.045735024 -0.060701627
000280 cd f1 5f bc d8 ee e2 bb d9 77 54 3c 24 3a d1 3d
       -0.01366849 -0.006925445 0.012968027 0.102161676
000290 b2 b1 71 3d ad 44 6e 38 dc 33 8d bd 38 88 3c 3d
       0.059007354 5.680758e-05 -0.06894657 0.046028346
0002a0 9d b2 bc bb 23 7c 44 bc e9 60 9e 3c 50 b7 52 3d
       -0.005758597 -0.011992487 0.01933332 0.05144435
0002b0 d1 f3 f6 bc 58 64 2e bc 47 da 6a 3c 07 f8 33 3d
       -0.030145558 -0.010644041 0.014334268 0.04393771
0002c0 8f ec cc 3c ce 93 92 3b f1 6f 45 bc 88 f1 cc 3c
       0.025015144 0.004473186 -0.012050615 0.025017515
0002d0 3f e5 b6 3b c7 27 50 3c b9 11 ca 39 7e 68 3e 3d
       0.0055815275 0.012704796 0.00038541647 0.04648637
0002e0 74 a5 cc 3d a0 bb 15 3e 13 4a 2a 3d 3b 16 e0 3d
       0.09992495 0.14622355 0.04157455 0.1094174
0002f0 25 f4 0e 3e a3 c3 a1 bc 5e a4 b3 3c 3a b8 09 3d
       0.13960321 -0.019746607 0.021928962 0.033622958
000300 d4 11 33 3b a1 ad e5 3d a1 72 be 3d a4 f9 d6 3c
       0.0027323859 0.11214758 0.092992075 0.026242085
000310 df 96 ce 3d b8 10 fc 3d f0 05 fc 3c 81 43 7d 3c
       0.1008737 0.12307876 0.03076455 0.015457989
000320 e5 9c 2c bd dd e2 c6 3c 21 8d b1 3d 00 ff 7b 3c
       -0.042141814 0.024278099 0.08669496 0.015380621
000330 25 bd e7 bb 9c 52 5a bd b9 62 5f 3d e1 67 08 bd
       -0.0070721083 -0.05330144 0.05453751 -0.03330219
000340 78 e5 e0 3c c5 38 81 3c 97 35 1a 3c 97 43 c4 bc
       0.02745317 0.01577414 0.009412191 -0.02395801
000350 5c 47 8b 3d 1c ca d1 3b 68 49 c4 3c 91 c0 f3 bc
       0.0680072 0.006402267 0.023960784 -0.029754909
000360 d5 63 16 3d 37 84 d9 bb 60 ce a0 3c 0c 6b 1f 3d
       0.0367163 -0.0066380757 0.019629657 0.038920447
000370 33 83 73 3a 0a e6 ff bc 27 4b 0f 3d c9 59 a9 bc
       0.00092892646 -0.03123762 0.03498378 -0.020672696
000380 89 63 ac 3c 6b a8 bd 3d e8 bd 81 bd b6 69 b9 3c
       0.021043556 0.09260639 -0.0633505 0.022633415
000390 cb b2 51 3d 39 46 86 be c8 f6 7e 3a 2b b4 36 bd
       0.0511959 -0.2622545 0.00097261043 -0.044605415
0003a0 2a 2f f3 ba a4 8d 6e bd ea 3d 84 bd 6a d6 de 3c
       -0.0018553485 -0.058240548 -0.06457122 0.02720185
0003b0 0e 21 cb 3c c1 5e 85 bd 43 12 03 3d c3 f0 9e 3c
       0.024796035 -0.065122135 0.031999838 0.019401914
0003c0 4d 5f f2 3c 49 dc b8 bd d6 3b 77 bd 00 3b 11 3d
       0.029586459 -0.09026391 -0.0603598 0.035456657
0003d0 18 77 38 3d 77 bb 46 3d 91 72 d7 bc 38 fa 66 3c
       0.04503545 0.048518624 -0.026299747 0.014097743
0003e0 f0 61 f5 bc 6f 45 d7 bc 7e ba 26 3c 4b 13 ab bc
       -0.029953927 -0.026278226 0.010176299 -0.020883223
0003f0 ab 15 e4 bc 02 1e 54 bd d0 72 4e 3c 5c 5a cf 3a
       -0.027842363 -0.05178643 0.012600616 0.0015819776

features.8.bias f4 [128]
000000 fc fe 25 ba 13 b7 58 3c 4f 03 c9 3c 9e 36 8b bc
       -0.0006332246 0.013227242 0.02453771 -0.016993817
000010 af 93 c4 3c 86 78 23 bc 39 8a 2d 3c c2 6e 83 3c
       0.023996202 -0.0099774655 0.010592037 0.016044024
000020 8c 08 3c bc 7e 05 62 3c e2 9f ac bc 38 ef d0 bc
       -0.011476647 0.013795255 -0.021072332 -0.025504693
000030 83 b1 cf 3c 86 78 a3 3c 1e 72 e6 3c 3a ae 53 3c
       0.025353199 0.019954931 0.028130587 0.012919957
000040 1d 3f ad bb e9 ee c7 bb 4a 1d a0 bc 61 40 ab 3c
       -0.0052870647 -0.0061014784 -0.019545216 0.020904722
000050 9a 2f bc 3c e2 04 50 3c c8 22 c2 bb 00 ee 2c 3c
       0.022971917 0.012696477 -0.0059245564 0.0105547905
000060 f7 68 d8 bc e9 cd 21 3c 8a f7 9f 3c 39 bd 66 bc
       -0.026417239 0.009875753 0.019527216 -0.0140832
000070 7f 8e ab 3c 7b 10 a6 bc b0 b7 6a bb fe 94 1c 3b
       0.02094197 -0.02027153 -0.0035815053 0.0023892517
000080 41 fd 6e bc b9 c8 04 3a ec 48 a7 bc 4d ca 8f bc
       -0.014586748 0.00050653104 -0.020420514 -0.01755252
000090 25 af ee bc fd b7 73 3c 8b 91 85 bc 0d 7a 50 3c
       -0.02913625 0.014875409 -0.016304752 0.012724412
0000a0 92 57 57 3c e7 a6 7b 3c 38 dd 3d 3c 9d 59 62 3b
       0.013143437 0.015359617 0.011588387 0.0034538277
0000b0 1a e2 cd bc 9b a7 c1 3b c0 8b 5a bc 0c 89 63 bb
       -0.025132228 0.0059098727 -0.013338983 -0.0034719137
0000c0 29 b6 bd bc b7 18 19 3c 26 5c 5e bb 9b 41 cf bb
       -0.02315815 0.009344271 -0.0033929436 -0.0063249595
0000d0 28 a4 2a 3c c8 75 d2 3c 0e 15 ad 3b f0 a2 06 bc
       0.010415114 0.025690928 0.005282051 -0.008217558
0000e0 ac f9 b8 bc f2 c6 ac bc a6 a9 cc bc 78 c8 59 3c
       -0.02257999 -0.021090958 -0.024983238 0.013292424
0000f0 ed d1 f0 3c 6d 84 02 bc b7 18 19 bc 20 10 43 bb
       0.029396975 -0.007966143 -0.009344271 -0.002976425
000100 ed 5a ba 3c c9 46 68 bc 2b 10 9d bc ec bf 5d 3c
       0.022748435 -0.014177033 -0.019172749 0.013534527
000110 63 5d 79 bc 45 78 74 3c d4 dd cf bc e3 d2 65 bb
       -0.015220019 0.014921253 -0.02537433 -0.0035068325
000120 6a 20 ec bc 1d e9 9c bc ef 7e e0 3c d2 42 f3 bc
       -0.02882405 -0.019154126 0.027404277 -0.029694948
000130 1c b3 e3 3c cc 17 7e 3c 68 18 90 bc 2a 02 a5 b9
       0.027795367 0.015508603 -0.017589763 -0.00031472865
000140 92 fe 5a 3c ea 12 ee 3c 73 d3 9d 3b 2f 81 c0 3b
       0.013366358 0.029061753 0.0048164665 0.005874775
000150 0d 7a 50 bc bd 43 8e bc 0b 77 50 bc 19 59 84 bc
       -0.012724412 -0.017366285 -0.012723695 -0.016155766
000160 6c 84 82 3c 3d 5e c3 3b 9e 9a 8f 3c 7e 02 e2 3c
       0.015932284 0.005962162 0.017529782 0.027589079
000170 27 b3 bd bc f0 3d e3 bc 2e bd 0c 3b 59 a9 43 bc
       -0.023156716 -0.027739495 0.0021475065 -0.011942231
000180 89 37 a6 3c 29 c8 50 bc d8 d2 8b bc 5f 5d 02 bc
       0.020290153 -0.012743034 -0.017068312 -0.007956832
000190 e1 69 73 3c 55 3d 51 bc c4 2d 86 3c f1 75 4d 3b
       0.0148567865 -0.01277097 0.016379245 0.0031350816
0001a0 02 97 61 b9 d8 6d e8 bc c8 54 2c 3c d9 1a d8 bc
       -0.00021513927 -0.02837269 0.01051826 -0.02637999
0001b0 cf e5 13 bc 3f d9 48 3c e6 94 e8 bc 8c a3 98 3b
       -0.009026959 0.012258827 -0.028391313 0.004658168
0001c0 be 67 b4 bb 4c 2f b3 bc fe 82 e4 3a 34 95 f1 bc
       -0.005505531 -0.021873139 0.0017434058 -0.02949009
0001d0 1c 3c 2d 3c a6 0e f0 3c ce b2 5a 3b 14 db 7e 3c
       0.010573413 0.02930386 0.0033370736 0.015555162
0001e0 95 16 da bc 43 33 28 3c ab 97 6f 3c c2 c4 13 3b
       -0.026622096 0.010266128 0.014623563 0.0022547697
0001f0 26 5c 5e bc 56 36 cd 3c d1 32 91 3a 0d 5b 81 bc
       -0.013571775 0.025050323 0.0011077767 -0.015790487
