sharding/shards_out/shard_017.pt (torch, 5604 bytes, 2 tensors)

features.39.weight f4 [512]
0	0x4011b2d5	2.27654
1	0x40355fb0	2.8339653
2	0x402f88aa	2.7427163
3	0x4007bdab	2.1209514
4	0x40209d2d	2.5095932
5	0x3ff9ac33	1.9505676
6	0x400ef3f0	2.2336388
7	0x401b9088	2.4306965
8	0x4032be16	2.792852
9	0x404a5184	3.1612253
10	0x4044a0a3	3.0723045
11	0x40243ecf	2.5663335
12	0x400f2222	2.2364583
13	0x404c43c7	3.1916368
14	0x4010cfac	2.2626753
15	0x4025ebfb	2.592528
16	0x400c960a	2.1966577
17	0x401c66b2	2.443768
18	0x401e8491	2.4768412
19	0x401f5cfe	2.4900508
20	0x40182e2e	2.3778186
21	0x3ff70923	1.9299663
22	0x4024cf7e	2.5751643
23	0x40282ec4	2.6278543
24	0x4014001b	2.3125064
25	0x3ffe7662	1.9879878
26	0x40170380	2.3595886
27	0x40047172	2.0694242
28	0x407e7670	3.9759789
29	0x401f514a	2.4893365
30	0x40151fe6	2.330072
31	0x401c6ae9	2.4440253
32	0x4020037f	2.5002134
33	0x403182f6	2.7736182
34	0x40228065	2.5390866
35	0x4032968f	2.7904394
36	0x40262002	2.5957036
37	0x400eb644	2.2298746
38	0x402e8628	2.7269382
39	0x401a9a7d	2.4156792
40	0x402aded1	2.6698496
41	0x40218097	2.5234735
42	0x40304ae4	2.754571
43	0x400dc9de	2.215446
44	0x40268271	2.6017115
45	0x401ee888	2.4829426
46	0x401656d7	2.3490503
47	0x40339cc1	2.8064425
48	0x404ae0ff	3.1699827
49	0x403c348c	2.9407072
50	0x4038d5d2	2.8880506
51	0x40660999	3.5943358
52	0x402e54f5	2.7239354
53	0x40290537	2.6409433
54	0x3fecf902	1.8513491
55	0x3fc534e7	1.540677
56	0x4027a801	2.6196291
57	0x4012cb67	2.2936647
58	0x404ba5d2	3.1819959
59	0x403c53a7	2.9426057
60	0x40268841	2.6020663
61	0x40592d49	3.393389
62	0x40428430	3.039318
63	0x402f13da	2.7355866
64	0x402d811c	2.7110052
65	0x40104c50	2.2546577
66	0x401d1b8c	2.4548063
67	0x403e8402	2.976807
68	0x402530f2	2.5811124
69	0x40354d87	2.832857
70	0x40382709	2.8773825
71	0x3fc09e72	1.5048354
72	0x40281e70	2.6268578
73	0x401e195e	2.4702983
74	0x400a9766	2.1654906
75	0x401a9342	2.415238
76	0x3fdb9128	1.7153673
77	0x3fd2315a	1.6421311
78	0x403c7f05	2.9452527
79	0x40362865	2.8462155
80	0x402bddff	2.6854246
81	0x4005b208	2.0889912
82	0x404e6078	3.224638
83	0x40337b7d	2.8044121
84	0x400b40e4	2.1758356
85	0x40274fb0	2.6142387
86	0x4010af3c	2.2606955
87	0x402c5bf5	2.6931126
88	0x400c61f9	2.1934798
89	0x40288728	2.6332493
90	0x400debb1	2.2175105
91	0x4015b90c	2.3394194
92	0x4032a3c5	2.7912457
93	0x40324865	2.7856686
94	0x40522d7c	3.2840261
95	0x403e2a25	2.9713223
96	0x4023edb2	2.5613828
97	0x403c7109	2.944399
98	0x40384fa1	2.8798602
99	0x401e7cdf	2.4763715
100	0x4024d009	2.5751975
101	0x402799e5	2.618768
102	0x40549ef6	3.3222022
103	0x40325dd7	2.7869775
104	0x403bbfd0	2.9335823
105	0x401996e5	2.3998349
106	0x401daf66	2.4638305
107	0x400b60c6	2.1777816
108	0x4038261e	2.8773265
109	0x4039528d	2.8956635
110	0x403b6979	2.9283125
111	0x40404fc3	3.0048683
112	0x401911af	2.3917043
113	0x3ffbdfef	1.9677714
114	0x4020b73d	2.511184
115	0x40314e9f	2.7704237
116	0x40148e01	2.3211672
117	0x4038de85	2.8885815
118	0x408281f9	4.078366
119	0x404c0829	3.187998
120	0x4040179a	3.0014405
121	0x40436f9c	3.053687
122	0x401fca8b	2.4967372
123	0x402638be	2.5972133
124	0x400b7e85	2.1795971
125	0x40336d03	2.8035285
126	0x403cfba6	2.9528594
127	0x4011dbbb	2.2790363
128	0x401b95ea	2.431025
129	0x4029e72c	2.6547346
130	0x402bbe74	2.6834993
131	0x400650b7	2.0986764
132	0x4040a4ab	3.0100505
133	0x402ccc5a	2.6999726
134	0x40329185	2.7901318
135	0x406ac3b4	3.6681948
136	0x401c87c9	2.4457877
137	0x4022ed20	2.545723
138	0x404b836f	3.179897
139	0x4060ee17	3.5145319
140	0x4019be3e	2.4022365
141	0x4011bedc	2.2772741
142	0x4039db32	2.9040036
143	0x4031ed4f	2.7801092
144	0x4000419c	2.0040045
145	0x401f51e1	2.4893725
146	0x4039d409	2.9035666
147	0x404b1196	3.1729484
148	0x404fef7f	3.2489927
149	0x4027bcea	2.6209054
150	0x402d6cea	2.7097726
151	0x400f255b	2.236655
152	0x40022890	2.0337257
153	0x402ce6c8	2.7015858
154	0x40332f08	2.7997456
155	0x4032bb84	2.792695
156	0x40284570	2.6292381
157	0x4030bfc7	2.7617052
158	0x403ef11d	2.9834664
159	0x403a4c8d	2.9109223
160	0x40215803	2.5209968
161	0x402893ee	2.634029
162	0x403ee423	2.9826744
163	0x40454a58	3.0826626
164	0x3ffd6916	1.9797695
165	0x4037e5f1	2.8734095
166	0x402d9162	2.7119985
167	0x4036d7be	2.8569179
168	0x402f80c6	2.7422347
169	0x406557f2	3.5834928
170	0x40043d14	2.066228
171	0x403a21e9	2.9083197
172	0x403f81d1	2.9922984
173	0x3feb86d2	1.8400519
174	0x401637ff	2.3471677
175	0x4031f5ad	2.7806199
176	0x40206f4f	2.5067937
177	0x40428312	3.03925
178	0x405105ef	3.2659872
179	0x401efa15	2.4840138
180	0x402b926e	2.6808124
181	0x4020a952	2.5103345
182	0x40309733	2.7592285
183	0x40180466	2.3752685
184	0x40343b6a	2.8161263
185	0x4018579f	2.380348
186	0x40272542	2.611649
187	0x40349c83	2.8220527
188	0x40116edc	2.2723913
189	0x40388c3e	2.8835597
190	0x4037ed09	2.8738425
191	0x3fffed02	1.9994204
192	0x4017a5aa	2.3694863
193	0x40274aef	2.6139486
194	0x402a5679	2.6615279
195	0x403136dc	2.7689734
196	0x4024cc3e	2.574966
197	0x403516f0	2.829525
198	0x403856c4	2.8802958
199	0x4033e990	2.8111305
200	0x40238a1e	2.555305
201	0x4063a213	3.5567672
202	0x403a07bb	2.9067218
203	0x402ff4ed	2.749324
204	0x401af01a	2.4209046
205	0x40366a79	2.8502486
206	0x404875b2	3.1321836
207	0x40342c20	2.8151932
208	0x403476c4	2.8197489
209	0x4019df41	2.4042513
210	0x40496677	3.146879
211	0x4029cc5f	2.6530988
212	0x400ad134	2.1690187
213	0x40405a21	3.005501
214	0x405805e0	3.3753586
215	0x4027cd00	2.6218872
216	0x40251e06	2.5799575
217	0x402ab221	2.6671221
218	0x3fd14355	1.6348673
219	0x407dc56b	3.9651744
220	0x4015d573	2.341153
221	0x403bba2b	2.9332378
222	0x4052b985	3.2925732
223	0x4013851d	2.3049996
224	0x3fc4e820	1.5383339
225	0x40233941	2.5503695
226	0x4033f21a	2.8116517
227	0x4033c83f	2.809097
228	0x402fdbb3	2.7477844
229	0x405f89f3	3.4927948
230	0x401b0bd6	2.4225974
231	0x400c9a84	2.196931
232	0x40264055	2.5976765
233	0x402dc05a	2.7148652
234	0x40489f54	3.1347246
235	0x404172fb	3.0226429
236	0x40313555	2.7688801
237	0x4035ea52	2.8424268
238	0x401701a7	2.3594759
239	0x402dc7f6	2.7153296
240	0x404d7971	3.2105372
241	0x4024e061	2.576195
242	0x40133be9	2.3005316
243	0x401aa3bf	2.4162443
244	0x401b412a	2.4258523
245	0x404aebdc	3.1706457
246	0x40255bf4	2.5837374
247	0x4021ae8f	2.5262792
248	0x4028b98c	2.636325
249	0x40141611	2.3138468
250	0x4014516c	2.3174696
251	0x402915cc	2.6419554
252	0x4007f805	2.124513
253	0x407c100e	3.93848
254	0x408ec475	4.4614816
255	0x4038dcde	2.8884807

features.39.bias f4 [512]
0	0xbf75d907	-0.9603428
1	0xc001ca40	-2.0279694
2	0xc0819d17	-4.050426
3	0xbfba6534	-1.4562135
4	0xc0302247	-2.7520921
5	0xbf716d1e	-0.94307125
6	0xbf9fc9cf	-1.2483462
7	0xc006f70f	-2.1088293
8	0xc05850ed	-3.3799393
9	0xc057e37d	-3.3732598
10	0xc065c03c	-3.589858
11	0xbffc2b9f	-1.9700812
12	0xc01eeddc	-2.4832678
13	0xc06e4c1c	-3.7233953
14	0xbfe88620	-1.8165932
15	0xc0285f55	-2.6308186
16	0xbf536408	-0.8257451
17	0xbf9625a1	-1.1730233
18	0xc028b171	-2.6358302
19	0xc04beb84	-3.1862497
20	0xc0098600	-2.1488037
21	0xbfe434c4	-1.7828603
22	0xbfdbbab0	-1.7166348
23	0xc01f70fe	-2.4912715
24	0xc0191bb8	-2.3923168
25	0xbf2830e1	-0.65699583
26	0xbfe39879	-1.7780906
27	0xbf981b04	-1.1883245
28	0xbfe0ddb9	-1.7567664
29	0xbfbf8876	-1.496352
30	0xc0097db0	-2.1482964
31	0xbff13ed2	-1.8847296
32	0xbfd84a5b	-1.6897691
33	0xc04829f2	-3.1275601
34	0xbf99db4e	-1.2020051
35	0xc0319c19	-2.7751524
36	0xbfe91c39	-1.8211738
37	0xbf46e06d	-0.77686197
38	0xbfc2bf04	-1.5214543
39	0xbfed1535	-1.8522097
40	0xbff17f09	-1.8866893
41	0xbfd78ad1	-1.6839238
42	0xc047b9e6	-3.1207213
43	0xbf80d2ed	-1.006437
44	0xbfd127ae	-1.6340234
45	0xc008a659	-2.135153
46	0xbfea9b2a	-1.8328602
47	0xbfe38e13	-1.7777733
48	0xc05a8e4e	-3.4149356
49	0xc031dbb4	-2.7790346
50	0xc05998a2	-3.399941
51	0xc08fbe47	-4.491977
52	0xc01d0a29	-2.4537451
53	0xbffa9853	-1.9577736
54	0xbef2d86f	-0.4743075
55	0xbec84e58	-0.39122272
56	0xc05079bc	-3.25743
57	0xbf7a7e32	-0.9784881
58	0xc02c18b1	-2.689007
59	0xc00d467b	-2.2074268
60	0xc0368b01	-2.8522341
61	0xc0427ac5	-3.0387433
62	0xc075df5d	-3.841758
63	0xbf9f937f	-1.2466887
64	0xc040f65b	-3.0150363
65	0xbfb741ca	-1.4316952
66	0xc00fd9f0	-2.2476768
67	0xc059da7e	-3.4039607
68	0xbfe1c60a	-1.7638562
69	0xbfe5f1c5	-1.7964407
70	0xc00f428c	-2.2384367
71	0xbe56f88b	-0.20993249
72	0xc035aa96	-2.8385367
73	0xc025a14b	-2.5879695
74	0xc00e6441	-2.224869
75	0xbfb56351	-1.4170934
76	0xbecae13e	-0.3962497
77	0xbf204a0e	-0.62613
78	0xc06cf281	-3.7023013
79	0xc075b9b3	-3.8394592
80	0xc0013ff5	-2.0195286
81	0xbfa386ab	-1.2775472
82	0xc050ec36	-3.2644172
83	0xbfddea29	-1.7337085
84	0xbfb6945e	-1.4264028
85	0xbfda2ea1	-1.704548
86	0xbfd638ce	-1.6736085
87	0xc030c7fe	-2.7622066
88	0xbd8040d2	-0.062623635
89	0xc038ce5b	-2.887595
90	0xbf94b88c	-1.1618819
91	0xbff708f3	-1.9299606
92	0xbffacc3b	-1.9593576
93	0xc01f8180	-2.492279
94	0xc00a94a3	-2.165322
95	0xc0134fc0	-2.3017426
96	0xc013f1d3	-2.3116348
97	0xc06337ee	-3.5502887
98	0xc01a36fd	-2.4096062
99	0xc030a669	-2.7601569
100	0xbfcc6221	-1.5967447
101	0xc015996e	-2.3374896
102	0xc0881477	-4.252498
103	0xc03511c1	-2.8292086
104	0xc049cef3	-3.1532562
105	0xc01f8fc4	-2.4931498
106	0xbfc3d067	-1.5297974
107	0xbf9d4b5b	-1.2288622
108	0xbff56e4a	-1.9174283
109	0xc02d5a28	-2.7086277
110	0xc06a684a	-3.6626153
111	0xc02f02ba	-2.7345414
112	0xbf7bc2f0	-0.98344326
113	0xbee74b7d	-0.4517478
114	0xbfb24e67	-1.3930176
115	0xc004bfdd	-2.0742104
116	0xbf957788	-1.1677103
117	0xc070822d	-3.7579453
118	0xc0f2bea1	-7.58577
119	0xc0889f5e	-4.269454
120	0xc0513b6f	-3.2692525
121	0xc081eb34	-4.0599613
122	0xbfabb2ee	-1.341398
123	0xc01e0c48	-2.4694996
124	0xbfb42958	-1.4075117
125	0xc05a58ac	-3.411662
126	0xbfc8caac	-1.568685
127	0xbfcb5847	-1.5886315
128	0xbfca531f	-1.5806617
129	0xc0375897	-2.864782
130	0xc022f668	-2.5462894
131	0xbf7f90dc	-0.9983041
132	0xc0347076	-2.819364
133	0xbfb617db	-1.422603
134	0xc01ab03a	-2.417006
135	0xc0953547	-4.6627536
136	0xc004ca65	-2.0748532
137	0xc00f5e47	-2.2401292
138	0xc0829e4f	-4.081825
139	0xc068564b	-3.630267
140	0xbfb4d29d	-1.4126774
141	0xc03143d6	-2.7697654
142	0xc041cba9	-3.0280554
143	0xc0083fb9	-2.1288893
144	0xbfb2c731	-1.3967038
145	0xc009d71d	-2.1537545
146	0xbff5a3d7	-1.9190625
147	0xc01930c0	-2.3936005
148	0xc08cd492	-4.4009485
149	0xc00139f3	-2.019162
150	0xc05d80d5	-3.4609883
151	0xbf820ba4	-1.0159802
152	0xbfc32315	-1.5245081
153	0xc04a2f96	-3.1591544
154	0xbfe3afbc	-1.7788005
155	0xc031845d	-2.7737038
156	0xbfda1b10	-1.7039509
157	0xc03d2f80	-2.9560242
158	0xbfdaa3e6	-1.7081268
159	0xc080c7c9	-4.024388
160	0xbfd0c503	-1.6310123
161	0xc00bd9c4	-2.1851664
162	0xc07aa4ae	-3.9163013
163	0xc01b177d	-2.4233086
164	0xbf277d8a	-0.6542593
165	0xc01bc5b3	-2.4339416
166	0xbfaf6681	-1.3703157
167	0xc0600d45	-3.50081
168	0xc002db8d	-2.0446503
169	0xc08136f1	-4.0379567
170	0xbf97260e	-1.1808488
171	0xc07390ef	-3.805721
172	0xc045d90e	-3.091373
173	0xbf10a670	-0.56503963
174	0xbf8c41fe	-1.0957639
175	0xbff89548	-1.9420557
176	0xc01ad580	-2.419281
177	0xc007a24e	-2.1192813
178	0xc08e85c3	-4.4538283
179	0xbff7eb3d	-1.9368664
180	0xbfdd8cda	-1.730861
181	0xbfa92a18	-1.3215971
182	0xc0437f48	-3.0546436
183	0xbfc63ea1	-1.5487863
184	0xc0485d83	-3.1307075
185	0xbfc082ef	-1.5039958
186	0xbfed8d3f	-1.855873
187	0xc032bd21	-2.7927935
188	0xbfd34e16	-1.6508205
189	0xbfc7a8a7	-1.5598344
190	0xc02940ee	-2.644588
191	0xbf096006	-0.53662145
192	0xbf77c978	-0.9679179
193	0xbfccf75b	-1.6012987
194	0xc010a3a2	-2.2599874
195	0xc03193b4	-2.77464
196	0xbfc87071	-1.5659314
197	0xc048ab76	-3.1354651
198	0xc06e3cfb	-3.722472
199	0xbfc6a24f	-1.5518283
200	0xc050e79f	-3.264137
201	0xc00464cf	-2.0686529
202	0xc0019715	-2.0248463
203	0xbfcbbdd1	-1.5917302
204	0xbfc637d4	-1.5485787
205	0xc001e231	-2.0294306
206	0xc068923b	-3.6339252
207	0xc03223b5	-2.7834294
208	0xc01f77e3	-2.4916923
209	0xbfa738af	-1.3064173
210	0xc0073325	-2.1124966
211	0xc0288762	-2.633263
212	0xbf8db156	-1.1069744
213	0xc023f84a	-2.5620294
214	0xc09e2491	-4.9419637
215	0xbfea285f	-1.829357
216	0xbfe2cad6	-1.7718151
217	0xc01f5a86	-2.4899
218	0xbe5ee17e	-0.21765706
219	0xc09f52e7	-4.97887
220	0xbfdbcf2c	-1.7172599
221	0xc00b1058	-2.1728725
222	0xc0af88f4	-5.485468
223	0xc014e52c	-2.3264875
224	0x3db189ff	0.08668899
225	0xbfb9a74c	-1.450418
226	0xc00e7017	-2.2255914
227	0xc0486716	-3.1312919
228	0xc0672572	-3.6116605
229	0xc0233725	-2.5502408
230	0xbfabbd3e	-1.3417127
231	0xbf614819	-0.8800064
232	0xbfbeba0b	-1.4900526
233	0xbfbfa471	-1.4972059
234	0xc08e29bc	-4.4425945
235	0xc04c7043	-3.194352
236	0xc04e5522	-3.223946
237	0xc048fd34	-3.1404543
238	0xc003be9c	-2.0585089
239	0xc01cc68d	-2.4496186
240	0xc0965cb5	-4.698817
241	0xbff1442a	-1.8848927
242	0xc005c002	-2.0898442
243	0xbfbc6aad	-1.4720055
244	0xbf984d28	-1.1898546
245	0xbfb34635	-1.40058
246	0xbfc9ba62	-1.5760005
247	0xc0263de0	-2.5975266
248	0xc0016b3f	-2.0221708
249	0xbfae4502	-1.361481
250	0xbf602562	-0.8755704
251	0xbfef9078	-1.8715963
252	0xbf533903	-0.8250887
253	0xc0bdd735	-5.9325204
254	0xc1ee39f9	-29.778307
255	0xc020c84e	-2.5122256
